models/model_01.pth (torch, 625516 bytes, 19 tensors)

encoder.0.weight f4 [64, 9, 3, 3]
0	0x3ce122eb	0.02748247
1	0x3c12b5a4	0.008954439
2	0x3ce2a2c8	0.02766551
3	0xbc42995b	-0.011877383
4	0x3cfbaaa0	0.030721009
5	0xbb95c75f	-0.004570886
6	0x3da6e01b	0.081482135
7	0x3d8d60a5	0.06903199
8	0xbda6af72	-0.08138932
9	0x3d4ed46d	0.050495554
10	0xbd908db5	-0.070582785
11	0x3c61613a	0.013756091
12	0xbdf4ca8e	-0.11952697
13	0xbdbe2dcd	-0.092860796
14	0xbde5c29b	-0.11218759
15	0x3c7c5ecd	0.015403462
16	0x3d9e44fc	0.077280015
17	0xbddcba9e	-0.10777782
18	0x3d85259d	0.06501315
19	0xbdf7c6ef	-0.120984904
20	0x3d9e4434	0.077278525
21	0xbdcd3378	-0.100195825
22	0x3d89673a	0.06709142
23	0xbcfc4ae4	-0.03079743
24	0x3d6cc1bb	0.057801943
25	0xbd347127	-0.044053223
26	0xbe0216ab	-0.1270396
27	0xbca2ea32	-0.019887064
28	0x3da07f6c	0.07836804
29	0x3c578f42	0.013156714
30	0xbdc77517	-0.0973913
31	0xbdc89f39	-0.09795994
32	0x3dc621af	0.096743934
33	0xbd571073	-0.05250592
34	0x3d1fb3c3	0.038989794
35	0x3d0fe64e	0.035131745
36	0x3d448ecc	0.047987744
37	0xbd39c162	-0.04535044
38	0x3da40b68	0.08009988
39	0x3ce6c248	0.028168812
40	0xbd835ec1	-0.06414557
41	0x3d4cb813	0.049980234
42	0x3d5a2b54	0.053263977
43	0xbd124251	-0.035707776
44	0x3d9f4cb1	0.077782996
45	0x3d408784	0.047004238
46	0xbdcc0743	-0.099623226
47	0xbdf60f94	-0.1201469
48	0xbdb4c799	-0.08827133
49	0xbd8a3aab	-0.06749471
50	0x3b9d3faf	0.0047988514
51	0x3d284d09	0.04108909
52	0xbd81273b	-0.06306311
53	0xbc594abc	-0.013262447
54	0xbda09bca	-0.078422144
55	0xbde2d6ad	-0.110761024
56	0x3d91ea7a	0.07124801
57	0xbc04cf5d	-0.00810608
58	0x3b19725d	0.0023414113
59	0xbdf6b44e	-0.12046109
60	0xbd567150	-0.052354157
61	0xbdc87e8c	-0.09789762
62	0xbe0a337e	-0.13496205
63	0xbda6c641	-0.08143283
64	0xbd0f2a16	-0.034952246
65	0xbd60276e	-0.054725103
66	0x3d1ec325	0.038760323
67	0xbd614d38	-0.055005282
68	0xbbfafbce	-0.007659412
69	0xbde09f44	-0.109678775
70	0xbd9bdc7f	-0.07610416
71	0xbd53ba01	-0.05169106
72	0xbd940931	-0.072283156
73	0xbdefc81a	-0.11708088
74	0xbe0bfb3e	-0.1367006
75	0xbd9de24f	-0.077091806
76	0xbd9c46e3	-0.07630708
77	0x3d277d31	0.040890876
78	0xbce8470a	-0.028354187
79	0xbdc3108e	-0.09524642
80	0xbd6476cd	-0.05577736
81	0x3c63abc5	0.0138959335
82	0xbb2cdcbb	-0.0026376683
83	0xbd392aec	-0.04520695
84	0xbde75eb4	-0.1129736
85	0xbd2b4dec	-0.04182236
86	0xbcf699c7	-0.030102624
87	0xbc996202	-0.018723492
88	0x3d86bc8c	0.06578931
89	0xbd644b5a	-0.055735923
90	0x3d0a02a6	0.033693932
91	0x3d8c8f4a	0.06863268
92	0xbda506e9	-0.08057959
93	0xbd832802	-0.06404115
94	0xbe0e9a3f	-0.13926028
95	0xbda867c0	-0.08222914
96	0x3dcc8078	0.09985441
97	0xbde5752f	-0.112039916
98	0xbe0832c8	-0.13300622
99	0xbd2d18b1	-0.042259876
100	0x3c9b401e	0.018951472
101	0x3da4f9bb	0.08055445
102	0xbdd28db8	-0.10280937
103	0x3d4ff753	0.050772976
104	0xbd7e7dd7	-0.06213173
105	0xbb3eaa9c	-0.002909339
106	0x3d02ba5a	0.031916
107	0xbd7079ce	-0.058709912
108	0x3daff9db	0.08592578
109	0xbde8c9db	-0.11366626
110	0x3d7dc32b	0.061953705
111	0xbce2a847	-0.027668132
112	0xbd916cc1	-0.07100821
113	0xbd4ae19f	-0.049531575
114	0xbdb0b628	-0.086284935
115	0x3d30b6d6	0.043143116
116	0xbcbfd1e9	-0.023415523
117	0x3d0a0b65	0.033702273
118	0x3dbdd4db	0.092691146
119	0xbc34a479	-0.011025541
120	0xbda0fadd	-0.078603484
121	0xbc2a82bc	-0.010407146
122	0x3d8fce35	0.07021753
123	0xbb7be106	-0.0038433685
124	0xbd1fdf8a	-0.039031543
125	0x3c96a152	0.01838747
126	0xbd0efb31	-0.034907524
127	0xbd68dc46	-0.056850694
128	0xbda37085	-0.07980446
129	0x3db92095	0.09039418
130	0x3ce2aee3	0.027671283
131	0x3d409736	0.047019206
132	0xbdafa0c6	-0.08575587
133	0xbd10c0a7	-0.035339978
134	0xbcbd144b	-0.023080966
135	0x3d512ca9	0.051067982
136	0xbdb6606c	-0.0890511
137	0x3d4ee5fe	0.050512306
138	0xbd3690f2	-0.044571824
139	0xbd0a18d0	-0.03371507
140	0xbd3d30a3	-0.04618896
141	0x3ceedeca	0.029158968
142	0xbd09de69	-0.033659372
143	0xbd410dfb	-0.047132473
144	0xbd91248a	-0.070870474
145	0xbd1f17a7	-0.038840916
146	0x3b1e4180	0.0024147928
147	0x3dc11f32	0.09429778
148	0xbc9e2bc4	-0.019307978
149	0xbdc6cade	-0.097066626
150	0xbdb12f2c	-0.086515754
151	0x3bb666ea	0.0055664675
152	0xbbb3434a	-0.005470668
153	0xbcdf49f6	-0.027256947
154	0xbdddbecd	-0.10827408
155	0xbd4283e6	-0.04748907
156	0xbd8079a1	-0.06273199
157	0xbe08f259	-0.13373698
158	0x3cbc807b	0.023010483
159	0xbd6a0a0c	-0.057138488
160	0x3d2c67e2	0.042091258
161	0x3d086421	0.033298615
162	0x3d64e63a	0.055883624
163	0xba82548d	-0.0009943411
164	0xbd949118	-0.07254237
165	0xbdba95f2	-0.09110631
166	0x3d9b477e	0.075819954
167	0x3de0ba5a	0.10973044
168	0x3e6481df	0.22315167
169	0x3e2c3fae	0.16821167
170	0x3e6effba	0.2333974
171	0xbddf424d	-0.10901318
172	0xbdc8cc77	-0.098046236
173	0xbe141b08	-0.14463437
174	0x3ce4125e	0.02784079
175	0xbd080cd4	-0.03321536
176	0xbd78fefa	-0.06079004
177	0x3d405c78	0.046963185
178	0x3e8cdab2	0.275106
179	0x3e8c183e	0.27362245
180	0xbc607602	-0.01370001
181	0xbe1e57c7	-0.15463172
182	0xbd99e92e	-0.075151786
183	0x3d97313a	0.07382436
184	0x3dbc684a	0.09199579
185	0xbd0302dc	-0.03198515
186	0xbc778426	-0.01510719
187	0x3e4a12c7	0.19733725
188	0x3e6f6938	0.23379982
189	0xbd07530a	-0.033038177
190	0xbe0be50b	-0.13661592
191	0xbe0e74b2	-0.13911703
192	0x3cb66e85	0.022269497
193	0xbdf83cee	-0.121209964
194	0xbd165283	-0.036699783
195	0x3c181267	0.009281731
196	0x3e0c5d39	0.13707437
197	0x3e1b629f	0.1517434
198	0xbe827765	-0.25481716
199	0xbdf79b03	-0.12090113
200	0xbe0db4f0	-0.13838553
201	0xbe1d4f4f	-0.15362285
202	0xbccde6e2	-0.025134508
203	0xbd655d88	-0.0559974
204	0xbd4edbb0	-0.05050248
205	0x3dceac9c	0.100915164
206	0xbd870f40	-0.065947056
207	0xbe080694	-0.1328376
208	0xbe7b0b3a	-0.24516001
209	0xbe10bd47	-0.14134704
210	0xbdf121f8	-0.11774057
211	0xbe06861c	-0.13137096
212	0xbe11f1db	-0.14252417
213	0xbd9e6d54	-0.077356964
214	0x3dc39257	0.095493965
215	0xbcd601e5	-0.02612395
216	0xbeaf644b	-0.34256205
217	0xbe9900a0	-0.2988329
218	0xbe1ce0f4	-0.15320188
219	0xbb86e085	-0.0041161203
220	0x3cf72930	0.030171007
221	0xbd91bf77	-0.07116597
222	0x3dd86b8e	0.105673894
223	0x3e1241cb	0.1428291
224	0x3dc374fe	0.09543799
225	0xbd5db36a	-0.05412618
226	0xbdb40c0b	-0.087913595
227	0xbce5bbe3	-0.028043693
228	0x3c4afb17	0.012388966
229	0x3d714efe	0.058913223
230	0x3cad6ae0	0.021169126
231	0x3dd22a14	0.10261932
232	0x3e039077	0.12848078
233	0x3e5ca5b4	0.21547586
234	0x3e77d515	0.24202378
235	0x3e73772c	0.23775929
236	0x3e642314	0.22279006
237	0x3e6ee586	0.23329744
238	0x3eae236e	0.34011406
239	0x3e32de92	0.17467716
240	0x3e80ee25	0.2518169
241	0x3ece3438	0.40274215
242	0x3ecbaca4	0.39780152
243	0x3ec1e4c2	0.3786984
244	0xbe07ac8d	-0.13249417
245	0x3ce04461	0.027376356
246	0xbcb0f212	-0.021599803
247	0xbe808bce	-0.25106663
248	0x3deb97d2	0.11503567
249	0xbe025aae	-0.12729904
250	0x3dc4b600	0.09605026
251	0xbd8ccf50	-0.06875479
252	0x3e91e11c	0.28492057
253	0xbe161306	-0.14655694
254	0xbd8fc86f	-0.070206515
255	0xbe36f3f2	-0.17866495

encoder.0.bias f4 [64]
0	0xbd35a18d	-0.04434352
1	0xbcbd5f2f	-0.023116676
2	0xbdb5dafd	-0.08879659
3	0x3e32ced2	0.17461708
4	0x3d812c7a	0.06307311
5	0x3e7ce06a	0.24694982
6	0x3e031df8	0.12804401
7	0xbd4cd1ee	-0.050004892
8	0x3dd2809e	0.10278438
9	0xbd614a24	-0.055002347
10	0xbd182f9a	-0.03715477
11	0x3dc203d8	0.094733894
12	0xbdaced4d	-0.08443699
13	0x3e35c452	0.17750672
14	0x3df79b0c	0.1209012
15	0x3e598a63	0.21244197
16	0xbd962cb0	-0.07332742
17	0xbc2bb171	-0.010479317
18	0x3d3264a4	0.04355301
19	0xbdc1754f	-0.09446203
20	0xbe839a51	-0.25703672
21	0x3e28ad2f	0.16472314
22	0xbd56ce20	-0.05244267
23	0xbd84be01	-0.06481553
24	0xbd9b0a28	-0.075702965
25	0x3e53db8c	0.20689219
26	0x3db6c5e0	0.089244604
27	0xbc40342b	-0.011731188
28	0x3d6706f9	0.056403134
29	0xbd65fb84	-0.056148067
30	0x3e64bfde	0.22338817
31	0xbdbc3b2d	-0.091909744
32	0xbdfe4b44	-0.124166995
33	0xbb36d931	-0.0027900452
34	0x3dfcafa8	0.12338191
35	0xbc8eb6b1	-0.017421098
36	0xbdf58be8	-0.119895756
37	0x3e48446d	0.19557352
38	0x3e3bf50f	0.18355201
39	0xbded2552	-0.11579384
40	0xbcaf163f	-0.021372912
41	0xbce5825c	-0.028016262
42	0x3e717562	0.23579934
43	0xbdf0f8bf	-0.117661946
44	0x3d34c57d	0.044133652
45	0xbcefb2cd	-0.029260064
46	0x3e474f6c	0.19463891
47	0x3e3998be	0.18124673
48	0xbdc52c40	-0.09627581
49	0x3e2bf0ac	0.16791028
50	0xbdbb5d68	-0.09148675
51	0x3dac19fa	0.08403392
52	0xbc982fe7	-0.01857753
53	0x3e58d08a	0.21173301
54	0x3d78fbd3	0.060787033
55	0xbd6d225a	-0.05789409
56	0x3e51d7a5	0.20492418
57	0xbdb5e88f	-0.08882248
58	0x3de6551b	0.11246701
59	0xbe010171	-0.12598206
60	0x3d423736	0.047415935
61	0x3e0cbccd	0.13743897
62	0xbdff0e02	-0.12453844
63	0xbdbd5bbf	-0.09246015

encoder.2.weight f4 [64]
0	0x3f66c884	0.9014971
1	0x3f7712aa	0.96512854
2	0x3f9287c6	1.1447685
3	0x3f64db30	0.89396954
4	0x3fe332d8	1.7749891
5	0x3f3aee55	0.73019916
6	0x3f773959	0.9657188
7	0x3f1de59c	0.6167848
8	0x3f5088e7	0.81458896
9	0x3f800895	1.0002619
10	0x3f477e07	0.7792668
11	0x3f1fb4c4	0.623852
12	0x3f792729	0.9732538
13	0x3f89b6b1	1.0758878
14	0x3f31dcc0	0.6947746
15	0x3e675c1d	0.22593732
16	0x3f778811	0.96691996
17	0x3f5060da	0.81397784
18	0x3f0b8ce3	0.5451185
19	0x3f7c68ad	0.9859722
20	0x3f727954	0.9471638
21	0x3f1b90bc	0.6076772
22	0x3f83d927	1.0300645
23	0x3f7ae2eb	0.980025
24	0x3f7855c6	0.9700588
25	0x3f41f768	0.75768137
26	0x3ec24a32	0.37947232
27	0x3f567201	0.83767706
28	0x3fb687c7	1.4260186
29	0x3f64a2fd	0.893112
30	0x3f57c60f	0.8428659
31	0x3f83d53f	1.0299453
32	0x3f74fc23	0.9569723
33	0x3f8a3a0c	1.0798965
34	0x3f4b9b22	0.7953359
35	0x3f4d7130	0.80250835
36	0x3f7f0f85	0.99633056
37	0x3f49bdb3	0.78805083
38	0x3f7d100b	0.98852605
39	0x3f7c9f1e	0.98680294
40	0x3f75f030	0.9606962
41	0x3f81718c	1.0112777
42	0x3f72f44c	0.9490402
43	0x3f7ca2e3	0.98686045
44	0x3f04063b	0.51572007
45	0x3f74e57a	0.95662653
46	0x3f6f644c	0.93512416
47	0x3f5b209a	0.8559662
48	0x3f0c21bf	0.5473899
49	0x3f947a8c	1.1599898
50	0x3f7c5543	0.985676
51	0x3e02f836	0.12789997
52	0x3f5e4db1	0.868373
53	0x3f6cfc23	0.9257223
54	0x3f8c31c1	1.0952684
55	0x3f6bbf8c	0.9208915
56	0x3f87dfbc	1.0615153
57	0x3f7d851a	0.9903122
58	0x3f8e5fe4	1.1123013
59	0x3f5f9296	0.8733305
60	0x3f64fd3b	0.894489
61	0x3f79feae	0.97654235
62	0x3f92f892	1.1482108
63	0x3f7d4b72	0.98943245

encoder.2.bias f4 [64]
0	0x3e28d0a3	0.16485839
1	0x3e1233ca	0.14277568
2	0x3d5663aa	0.05234114
3	0xbcc132c7	-0.023583783
4	0xbf7d4aad	-0.9894207
5	0x3e8592ce	0.26088566
6	0x3dffec2d	0.12496219
7	0xbe18c5b9	-0.14919175
8	0x3bdbeb4f	0.0067114006
9	0x3b3ae72e	0.0028519141
10	0x3c07512a	0.008259097
11	0xbb77fe67	-0.0037840845
12	0x3abfe6a0	0.0014640875
13	0x3d690cb3	0.056896877
14	0x3e2ddc37	0.16978537
15	0x3e18066c	0.148462
16	0xb9685206	-0.000221558
17	0x3e1b2f21	0.15154697
18	0xbda62752	-0.081129685
19	0x3e3cd656	0.18441138
20	0x3ce6447a	0.028108824
21	0x3dfbb16b	0.12289699
22	0x3938aeee	0.00017612774
23	0xb9741b1e	-0.00023279755
24	0x3a9fb656	0.0012185078
25	0x3d4f9b26	0.05068507
26	0x3e077d67	0.13231431
27	0x3dd7e663	0.1054199
28	0xbd94ab96	-0.0725929
29	0x3c563e28	0.013076343
30	0x3e0bc0b7	0.13647734
31	0x3cc42775	0.023944596
32	0xba6b8643	-0.0008984545
33	0x39a01b3e	0.00030537875
34	0x3e3efb9d	0.1865067
35	0x3e28e64b	0.164941
36	0xbb1388b8	-0.002251191
37	0x3e43d673	0.19124775
38	0xbd3fea50	-0.046854317
39	0xbe7aa146	-0.24475583
40	0xbdc2c9b8	-0.09511131
41	0x3c0d06c0	0.008607566
42	0x3e00db03	0.12583546
43	0xbe763f14	-0.240475
44	0x3dc752c3	0.097325824
45	0xba1df7a0	-0.00060259737
46	0x3dc97353	0.098364495
47	0x3e0c7eeb	0.1372029
48	0xbd089146	-0.03334167
49	0xbdd0ae82	-0.10189535
50	0x3ad5b4f8	0.0016304543
51	0x3e49be9c	0.19701618
52	0x3d623fad	0.055236507
53	0x3e673a07	0.2258073
54	0xb9f8f271	-0.0004748288
55	0x3c4a26e3	0.012338373
56	0x3d520325	0.05127253
57	0x3be51e4c	0.006992137
58	0x3d80a08f	0.06280624
59	0xbdb2f069	-0.08737261
60	0x3e7421db	0.2384104
61	0x3e0a0924	0.1348005
62	0x3c6318f2	0.013860928
63	0x3e65a02d	0.22424383

encoder.2.running_mean f4 [64]
0	0x3409c440	1.2830515e-07
1	0x0ede45be	5.4794385e-30
2	0x3e85e5a6	0.2615177
3	0x3c7d5ecd	0.015464497
4	0x3cf7e3e2	0.03026003
5	0x3e5206e9	0.20510449
6	0x3a1b333d	0.0005920416
7	0x3b4b3927	0.0031009407
8	0x3c28a367	0.010292864
9	0x00000004	6e-45
10	0x387f5fac	6.088584e-05
11	0x3cad1776	0.021129351
12	0x1e9c2a6d	1.653469e-20
13	0x3e8c17ef	0.2736201
14	0x3b853024	0.0040645767
15	0x3e09d8c8	0.13461602
16	0x33784b2b	5.7810364e-08
17	0x3af0e1ea	0.0018377875
18	0x3f1ac5b7	0.6045794
19	0x00000004	6e-45
20	0x3e3c7cf1	0.18407036
21	0x3ba18f2c	0.0049303975
22	0x26abc31c	1.1918393e-15
23	0x3267fb1c	1.3503065e-08
24	0x29c9f23a	8.968213e-14
25	0x3efc8573	0.49320564
26	0x3eea8e47	0.45811674
27	0x3b8ca99b	0.0042926795
28	0x3e32daa3	0.17466216
29	0x3eba66ad	0.3640646
30	0x3a9dd295	0.0012040908
31	0x3e7f569d	0.24935384
32	0x1239cbc4	5.8626868e-28
33	0x20fad5d8	4.2493157e-19
34	0x3b1464cc	0.0022643087
35	0x3b195890	0.0023398735
36	0x33fc25d0	1.17415425e-07
37	0x3b368cd2	0.0027854932
38	0x3e1fa9ed	0.15592165
39	0x00000004	6e-45
40	0x3e395a16	0.18100771
41	0x3820aae8	3.830614e-05
42	0x3a3d4130	0.00072194915
43	0x00000004	6e-45
44	0x3e8f059a	0.2793396
45	0x32b58337	2.1130843e-08
46	0x3b61da0a	0.0034462237
47	0x39b280c6	0.0003404675
48	0x3b5fd6a7	0.0034155042
49	0x3e87c726	0.26519126
50	0x0005701b	4.99393e-40
51	0x3ea4c39b	0.32180485
52	0x39787338	0.00023694045
53	0x3b4a4bdc	0.003086797
54	0x360a585a	2.061503e-06
55	0x383442c1	4.2977514e-05
56	0x3d8e6d0c	0.06954393
57	0x37b7cbb6	2.191016e-05
58	0x3e6f7dfd	0.23387904
59	0x3f49667d	0.7867201
60	0x05c891be	1.8861447e-35
61	0x3de036e7	0.10947972
62	0x3e12adb6	0.14324078
63	0x00000004	6e-45

encoder.2.running_var f4 [64]
0	0x30757b7e	8.9305974e-10
1	0x0bf324ea	9.365574e-32
2	0x3d1e6dc3	0.038678896
3	0x3a4e542c	0.0007870819
4	0x3abf4a53	0.0014594294
5	0x3b185cd5	0.0023248692
6	0x3750b989	1.2440964e-05
7	0x39fd323b	0.00048293345
8	0x3b1f661c	0.0024322337
9	0x00000004	6e-45
10	0x3748848c	1.195179e-05
11	0x3b0795d0	0.002068866
12	0x1b081c7f	1.1258864e-22
13	0x3ae32838	0.0017330712
14	0x396a1236	0.00022322763
15	0x3b6f652b	0.0036528807
16	0x308e4319	1.035093e-09
17	0x38b9b063	8.854342e-05
18	0x3d8dfb29	0.069326706
19	0x00000004	6e-45
20	0x3cc70452	0.024294052
21	0x39a7d199	0.00032008885
22	0x22834751	3.558313e-18
23	0x2f4d436e	1.8668597e-10
24	0x2611353f	5.0379143e-16
25	0x3cedf3e5	0.029046962
26	0x3d276144	0.040864244
27	0x3a1572ce	0.0005701006
28	0x3bd00e85	0.006349387
29	0x3d47ba6a	0.048761763
30	0x3823d629	3.906168e-05
31	0x3c9f69c0	0.019459605
32	0x0caa9602	2.628293e-31
33	0x1edc64a1	2.3335025e-20
34	0x38a7bfb9	7.998892e-05
35	0x38f7746a	0.000117995616
36	0x313fa175	2.7885936e-09
37	0x3907c664	0.0001294851
38	0x3b774aa7	0.0037733705
39	0x00000004	6e-45
40	0x3c3dcd6b	0.01158462
41	0x35cf8b44	1.5463233e-06
42	0x37c69c07	2.3676095e-05
43	0x00000004	6e-45
44	0x3cbbc04e	0.022918846
45	0x2fe2b071	4.123453e-10
46	0x3950c2df	0.00019909021
47	0x37e80234	2.7657581e-05
48	0x39e26ab8	0.0004318559
49	0x3b8945e6	0.0041892407
50	0x00000d9f	4.886e-42
51	0x3cb90908	0.022587314
52	0x362fcff9	2.6198088e-06
53	0x392714db	0.0001593413
54	0x3381fe49	6.053285e-08
55	0x3581f1fa	9.681673e-07
56	0x3b80bf46	0.0039290516
57	0x368313ca	3.906408e-06
58	0x3c066731	0.008203314
59	0x3e396724	0.18105751
60	0x003e0fb2	5.699431e-39
61	0x3b762aa7	0.0037562044
62	0x3c20453f	0.009782135
63	0x00000004	6e-45

encoder.4.weight f4 [128, 64, 3, 3]
0	0xbe85dd00	-0.26145172
1	0xbe8f0c9f	-0.27939317
2	0xbe442d04	-0.19157797
3	0xbe7ad45e	-0.24495074
4	0xbe58317d	-0.21112628
5	0xbe8482d6	-0.2588107
6	0xbe69b7ba	-0.22823992
7	0xbe759341	-0.23981954
8	0xbe62f0f2	-0.22162226
9	0xbe5622fb	-0.20911781
10	0xbe91752b	-0.28409705
11	0xbe73f090	-0.23822236
12	0xbe90fe02	-0.28318793
13	0xbe6f6823	-0.23379569
14	0xbe5b5f30	-0.2142303
15	0xbe80027a	-0.2500189
16	0xbe9a939c	-0.30190742
17	0xbe929b45	-0.28634086
18	0x3d22dfdf	0.03976428
19	0x3d8d208a	0.06890972
20	0x3cb30e3d	0.021857375
21	0x3d8899cb	0.06669959
22	0x3da98e39	0.0827908
23	0x3d22c5c7	0.039739396
24	0xbd08d5b7	-0.03340694
25	0xbda9e427	-0.0829547
26	0xbe461105	-0.1934243
27	0x3d892363	0.066962026
28	0xbc82b756	-0.015956562
29	0xbd50e86a	-0.051002897
30	0x3dcf079c	0.10108873
31	0x3d605941	0.05477262
32	0xbdf46401	-0.11933137
33	0x3da75117	0.081697635
34	0xbcb6ede1	-0.022330226
35	0xbe026dad	-0.1273715
36	0x3e1c2721	0.15249301
37	0xbd5e5bdb	-0.05428682
38	0x3e364fd0	0.17803884
39	0x3d8e1c80	0.0693903
40	0xbdd33608	-0.1031304
41	0x3e2cb641	0.168664
42	0xbde333c1	-0.11093856
43	0xbe48969a	-0.195887
44	0xbd6fdfe3	-0.058563124
45	0xbd84b7c9	-0.06480367
46	0xbd5f8cce	-0.05457764
47	0x3da2f511	0.07956899
48	0x3bf10285	0.0073550367
49	0xbd6674a5	-0.056263585
50	0x3d6765a9	0.056493435
51	0xbdc0b03f	-0.09408616
52	0xbe2aad84	-0.16667753
53	0xbdcc3623	-0.09971263
54	0xbe3f3e96	-0.18676218
55	0xbdf3187b	-0.11869904
56	0xbdd26f2f	-0.10275113
57	0xbe1d68d3	-0.15372019
58	0xbd9a963f	-0.075481884
59	0xbdd91e5b	-0.10601493
60	0xbe179265	-0.14801939
61	0xbd823e8e	-0.063595876
62	0xbd9bdc9a	-0.07610436
63	0x3c499c52	0.012305336
64	0x3d811f0b	0.06304749
65	0x3e9021e6	0.28150862
66	0x3e477b84	0.19480711
67	0x3e7f9685	0.24959762
68	0x3e8339ef	0.25630137
69	0x3e6cd00a	0.23126236
70	0x3ea796c8	0.32732224
71	0x3e837f64	0.2568313
72	0x3e12bb64	0.14329296
73	0x3e1201ff	0.14258574
74	0x3e06e1d4	0.13172084
75	0x3e54fc27	0.20799313
76	0x3e4671e5	0.19379385
77	0x3e4100a3	0.18847899
78	0x3d0437de	0.03227984
79	0x3ac0e9c8	0.001471811
80	0xbca7ce7d	-0.020484203
81	0x3daacc31	0.08339728
82	0x3dab5f29	0.0836776
83	0x3c793cf2	0.015212284
84	0x3db3b423	0.08774593
85	0x3db5e548	0.088816226
86	0x3dd2e337	0.10297244
87	0x3dd51c21	0.10405756
88	0x3d5665e8	0.05234328
89	0x3dbaac88	0.09114939
90	0xbd0037ec	-0.03130333
91	0x3c936c52	0.017995987
92	0xbd20d69f	-0.03926718
93	0xbd409519	-0.04701719
94	0xbd9de8a0	-0.07710385
95	0xbd6a9ed0	-0.05728036
96	0xbcbcc815	-0.023044625
97	0xbd0979bb	-0.033563357
98	0xbbc5b417	-0.0060334313
99	0x3cbcd383	0.023050075
100	0x3decea8c	0.11568174
101	0x3ddbee65	0.107388295
102	0x3e2071dd	0.15668435
103	0x3de90f59	0.113798805
104	0x3da8bf16	0.08239572
105	0x3dfcbe24	0.12340954
106	0x3e0bb2d7	0.1364244
107	0x3e5c0c97	0.21489178
108	0x3cec189a	0.028820325
109	0xbcd10686	-0.025515806
110	0xbd0ca3f1	-0.034336034
111	0x3c114a49	0.008867809
112	0x3cc4af26	0.024009299
113	0x3c96947e	0.018381353
114	0xbb9471a6	-0.0045301495
115	0x3b9e0bde	0.004823192
116	0xbc813b42	-0.015775327
117	0xbdaf4047	-0.08557182
118	0xbdc89735	-0.097944655
119	0xbcf2d2f6	-0.02964161
120	0x3dbba23d	0.09161804
121	0x3df0f5c1	0.11765624
122	0x3d7fd44c	0.06245832
123	0xbb97710c	-0.0046216305
124	0x3d030731	0.03198928
125	0xbe101cec	-0.14073533
126	0xbe7495d1	-0.23885275
127	0xbea32722	-0.31865793
128	0xbf006547	-0.50154537
129	0x3d5a8031	0.05334491
130	0x3d9e5124	0.0773032
131	0x3b5b602e	0.0033474076
132	0xbd1ab87a	-0.037773587
133	0xbe505ea0	-0.20348597
134	0xbe9fe5c6	-0.3122999
135	0x3cf0deec	0.029403172
136	0xbd408d11	-0.04700953
137	0xbe8448f6	-0.25836915
138	0xbd51c69c	-0.0512148
139	0xbdb19dc5	-0.0867267
140	0xbe89de67	-0.26927492
141	0xbdc4e777	-0.09614461
142	0xbd2c219a	-0.042024232
143	0xbd7f8c98	-0.06238994
144	0xbdb2b37a	-0.08725639
145	0x3dd8af86	0.105803534
146	0xbda81198	-0.08206481
147	0xbd9d5c76	-0.07683651
148	0x3c861cff	0.016371248
149	0xbd02896e	-0.031869344
150	0x3d6dc12e	0.05804556
151	0x3da69a03	0.08134844
152	0xbd4ec3e3	-0.05047978
153	0x3d90a6d6	0.070630714
154	0x3d92bd54	0.07165018
155	0x3dd287bf	0.10279798
156	0x3d44c67f	0.048040863
157	0x3ce5f48a	0.028070707
158	0x3d8dd716	0.0692579
159	0x3de8e3d2	0.11371578
160	0x3d6290d2	0.055313893
161	0x3ddac2ca	0.10681684
162	0x3d712de7	0.058881667
163	0x3e11cb18	0.1423763
164	0x3e1f0fe6	0.15533409
165	0x3e0b35cf	0.13594745
166	0x3db9655b	0.09052535
167	0x3e323795	0.17404015
168	0x3d9bc24d	0.07605419
169	0x3cccbdeb	0.024992904
170	0x3dc57088	0.09640604
171	0xbe81024c	-0.25197065
172	0xbea41800	-0.3204956
173	0xbe772a41	-0.24137212
174	0xbe829ee1	-0.2551184
175	0xbe96f16b	-0.29481062
176	0xbea70b57	-0.3262584
177	0xbe948e8a	-0.29015
178	0xbe92b6d6	-0.28655118
179	0xbe9cabf5	-0.30599943
180	0x3e069914	0.13144332
181	0x3e1b3bd4	0.15159541
182	0x3d2d9a87	0.042383697
183	0x3e9833d1	0.29727033
184	0x3e841d30	0.25803518
185	0x3e1557eb	0.1458432
186	0x3e7ee0f2	0.24890497
187	0x3e876d89	0.26450756
188	0x3e1cc156	0.15308127
189	0xbe3f39dc	-0.18674415
190	0xbd6bb97b	-0.057549935
191	0xbdcf400e	-0.10119639
192	0x3d3675d9	0.044545982
193	0x3a296e75	0.0006463298
194	0x3d54f7db	0.051994186
195	0xbcde1f49	-0.027114527
196	0xbd0ebc68	-0.034847647
197	0xbd3222a1	-0.043490056
198	0xbda33253	-0.07968583
199	0xbda32bf8	-0.07967371
200	0xbded7349	-0.115942545
201	0xbe057501	-0.13032915
202	0xbdade822	-0.084915414
203	0xbd5df743	-0.054190885
204	0xbe164a99	-0.14676894
205	0xbdcb6db9	-0.09933037
206	0xbe04b94f	-0.12961315
207	0x3dc5bd7c	0.09655282
208	0x3d97c20a	0.07410057
209	0x3dfab652	0.12241806
210	0x3dacbe6f	0.0843476
211	0x3db26a0d	0.08711634
212	0x3da94a9f	0.08266186
213	0xbd11a22d	-0.035555054
214	0x3d7ed91e	0.062218778
215	0x3cf444e9	0.029818015
216	0x3d290573	0.041264962
217	0x3d8e453f	0.069468014
218	0x3dd312d6	0.10306327
219	0x3d432402	0.04764176
220	0x3d887934	0.06663743
221	0x3d4c6b29	0.049906883
222	0x3da19a4d	0.07890759
223	0x3d8e66fd	0.06953237
224	0x3d9152d6	0.07095878
225	0x3de13806	0.10997014
226	0x3e1ece65	0.15508421
227	0x3d13a440	0.036045313
228	0x3da6dc6c	0.08147511
229	0x3e1bb38b	0.15205209
230	0x3d949d0f	0.07256519
231	0xbaa24319	-0.0012379616
232	0x3d9dcef0	0.07705486
233	0x3d6c9cd9	0.05776677
234	0x3e05783c	0.13034147
235	0x3e000b61	0.1250434
236	0xbdf0550a	-0.1173497
237	0x3d1f956a	0.03896085
238	0xbd3b3dd6	-0.04571327
239	0xbde489e9	-0.11159117
240	0xbdbed799	-0.09318466
241	0xbda781f3	-0.08179083
242	0xbdae7b45	-0.085196055
243	0xbe87e4e0	-0.26541805
244	0xbd35ac48	-0.044353753
245	0x3dacfa88	0.084462225
246	0xbe62c2a6	-0.22144565
247	0xbe36e848	-0.17862046
248	0xbdc9f45b	-0.0986106
249	0xbca8c9fe	-0.02060413
250	0xbd86d9aa	-0.06584485
251	0xbe0ef1d1	-0.13959433
252	0x3d85720f	0.065158956
253	0x3c30a943	0.010782543
254	0x3e65e3c3	0.22450165
255	0xbe38c685	-0.18044479

encoder.4.bias f4 [128]
0	0xbe9adb8a	-0.3024562
1	0xbd097567	-0.03355923
2	0xbd180cf3	-0.037121724
3	0xbd0f0c96	-0.034924112
4	0xbe12ad39	-0.14323892
5	0xbe36116c	-0.17780083
6	0xbe707016	-0.23480257
7	0xbdf3fdd7	-0.119136505
8	0xbe047c1e	-0.12937972
9	0xbea42d9a	-0.3206604
10	0xbe12323a	-0.14276972
11	0xbe45ed5a	-0.19328824
12	0xbdc4f692	-0.09617342
13	0xbe542a08	-0.20719159
14	0xbdf659a0	-0.12028813
15	0xbd8eccb2	-0.06972636
16	0xbed8e131	-0.42359307
17	0x3cedad9e	0.029013451
18	0xbee6964d	-0.45036545
19	0xbe2517db	-0.16122381
20	0xbe8d53cd	-0.27602997
21	0xbdd3fa6a	-0.10350497
22	0xbe07aa57	-0.13248573
23	0xbe30331b	-0.17206995
24	0xbe7c0d49	-0.24614443
25	0xbda13c7c	-0.078728646
26	0xbe964899	-0.29352263
27	0xbe8eb749	-0.2787421
28	0xbdbea9b0	-0.09309709
29	0xbebe37c1	-0.37151912
30	0xbe10499c	-0.1409058
31	0xbea78b2d	-0.3272337
32	0xbe50cda8	-0.20390952
33	0xbe7f7fe6	-0.24951133
34	0xbe841b64	-0.25802147
35	0xbe90e377	-0.28298542
36	0xbd06d106	-0.032914184
37	0xbeaf7551	-0.34269193
38	0x3cb687f2	0.02228162
39	0xbd943ef3	-0.07238569
40	0x3d3b6e0c	0.045759246
41	0xbe0e667a	-0.13906279
42	0xbdaf4ec9	-0.08559949
43	0xbeacbe66	-0.33739012
44	0xbe6e60df	-0.23279141
45	0xbe280f44	-0.16412073
46	0xbe2fc65d	-0.17165513
47	0xbe0484e0	-0.12941313
48	0xbd6a183d	-0.05715202
49	0xbe539d1d	-0.20665403
50	0xbe334559	-0.17506923
51	0xbd28d120	-0.041215062
52	0xbe9b4e6d	-0.30333272
53	0xbd8d4286	-0.06897454
54	0xbe563953	-0.20920305
55	0xbe7e4521	-0.24831058
56	0xbe34bb7c	-0.17649645
57	0xbdf33be0	-0.118766546
58	0x3d9ffb98	0.078116596
59	0xbdebfd14	-0.1152288
60	0xbe473890	-0.1945517
61	0x3dee4ce7	0.11635762
62	0x3d4fd43e	0.05073952
63	0xbe4b7a2f	-0.19870828
64	0xbe1709c0	-0.14749813
65	0xbd9260b6	-0.071473524
66	0xbe218383	-0.15772824
67	0xbe609096	-0.21930155
68	0xbe16c34b	-0.14722936
69	0xbeb6b802	-0.35687262
70	0xbd9e0708	-0.07716185
71	0xbc9703fe	-0.01843452
72	0xbe38c5b8	-0.18044174
73	0xbe2f1963	-0.17099528
74	0xbe39ad51	-0.18132521
75	0xbe87ad68	-0.26499486
76	0x3d66a8ae	0.05631321
77	0xbd7b2702	-0.061316498
78	0xbe966c11	-0.29379323
79	0xbde11c61	-0.10991741
80	0xbdc5ea63	-0.09663846
81	0xbdb00d69	-0.08596308
82	0xbe31db70	-0.17368865
83	0xbd11f991	-0.035638396
84	0xbdf67750	-0.12034476
85	0xbe3f052f	-0.18654321
86	0xbe3f1dcf	-0.18663715
87	0xbdaaa7da	-0.083327964
88	0xbe19b835	-0.15011676
89	0xbe043d20	-0.12913942
90	0xbe2ca618	-0.16860235
91	0xbddd55a2	-0.10807349
92	0x3ce3417f	0.027741192
93	0xbe1d4c8b	-0.1536123
94	0xbe476567	-0.19472276
95	0xbae30eaf	-0.0017323102
96	0xbe962093	-0.29321727
97	0xbda769ce	-0.081744775
98	0xbd808f7a	-0.06277366
99	0xbe204445	-0.15651043
100	0xbcfbb37a	-0.03072523
101	0xbd5ad380	-0.05342436
102	0xbe6a5eb9	-0.22887696
103	0xbdf79d10	-0.12090504
104	0xbe01940c	-0.12654132
105	0xbe06b868	-0.13156283
106	0xbd044ad6	-0.03229793
107	0xbe8af87e	-0.2714271
108	0xbd56b6c1	-0.05242038
109	0xbe07f412	-0.13276699
110	0xbeb4bfc2	-0.3530255
111	0xbdeaedd3	-0.114711426
112	0xbdb8e213	-0.09027495
113	0xbd695ab3	-0.056971263
114	0xbe9277ab	-0.28606924
115	0xbe2427f1	-0.16030861
116	0xbdd74654	-0.10511461
117	0xbe05648a	-0.13026634
118	0xbde46198	-0.11151427
119	0xbd9e5717	-0.07731455
120	0xbd32d0d5	-0.04365619
121	0xbec29f8f	-0.3801236
122	0xbeb24bc4	-0.3482343
123	0xbce8552d	-0.028360927
124	0x3d96f83c	0.07371566
125	0xbe95122e	-0.29115433
126	0xbe50d46b	-0.20393531
127	0xbd643dc2	-0.05572296

encoder.6.weight f4 [128]
0	0x3f64cf0e	0.8937844
1	0x3f4d77b2	0.80260766
2	0x3f6f17cc	0.93395686
3	0x3fa9d472	1.3267958
4	0x3f73624b	0.9507186
5	0x3f6be529	0.92146546
6	0x3f3b347c	0.7312696
7	0x3f64e1da	0.8940712
8	0x3f94318a	1.1577618
9	0x3fa5bade	1.2947652
10	0x3fbc28e0	1.4699974
11	0x3f72bb4d	0.9481705
12	0x3f442c05	0.7662967
13	0x3f3cf831	0.7381621
14	0x3f8542f2	1.0411055
15	0x3f4de696	0.8042997
16	0x3f514af4	0.81754994
17	0x3f5b4a16	0.8565992
18	0x3f5bbb73	0.858329
19	0x3f57cf5a	0.8430077
20	0x3f9a5340	1.2056656
21	0x3f8e4547	1.1114892
22	0x3f7efc2c	0.99603534
23	0x3f83a863	1.0285763
24	0x3f8ed306	1.1158149
25	0x3f5a8c95	0.8537076
26	0x3f1e2f01	0.6179047
27	0x3f81482d	1.0100151
28	0x3f385bbd	0.7201498
29	0x3f6ae944	0.91762185
30	0x3fa5aa1e	1.2942541
31	0x3f6f36da	0.9344307
32	0x3fa83dc1	1.3143846
33	0x3f4a9b2b	0.7914302
34	0x3f600058	0.87500525
35	0x3f79bd02	0.9755403
36	0x3f91eeee	1.140104
37	0x3f52a6b7	0.82285637
38	0x3f5f807a	0.87305415
39	0x3f473b3c	0.7782476
40	0x3f6500e8	0.8945451
41	0x3f6df40d	0.92950517
42	0x3f4b0ad6	0.7931341
43	0x3f69e865	0.9137023
44	0x3f96db9a	1.1785767
45	0x3f47fca6	0.78119886
46	0x3f74edb1	0.9567519
47	0x3f48761a	0.7830521
48	0x3f1843f8	0.5947871
49	0x3f531b45	0.82463485
50	0x3f552044	0.8325236
51	0x3f817a9b	1.0115541
52	0x3f604a04	0.8761294
53	0x3f719740	0.94371414
54	0x3f38692e	0.7203549
55	0x3f8e55f3	1.111998
56	0x3f5a552d	0.8528622
57	0x3f72c173	0.9482643
58	0x3f5eb88b	0.8700034
59	0x3f6253d5	0.8840917
60	0x3f854970	1.0413036
61	0x3f65e4cd	0.8980225
62	0x3f7f2d76	0.9967874
63	0x3f6c42be	0.9228934
64	0x3f86b1e1	1.0523034
65	0x3f8c522b	1.0962576
66	0x3f55c8ca	0.83509505
67	0x3f51139e	0.8167056
68	0x3f921326	1.1412094
69	0x3f892f3c	1.071754
70	0x3f491ba8	0.78557825
71	0x3f520b62	0.8204862
72	0x3f4be9be	0.7965354
73	0x3fcc220c	1.594789
74	0x3f751979	0.95741993
75	0x3f8de142	1.1084368
76	0x3f40610b	0.75148076
77	0x3f515578	0.8177104
78	0x3f8f987a	1.1218407
79	0x3f432052	0.7622119
80	0x3f06fe1d	0.52731496
81	0x3f8eff8e	1.1171739
82	0x3fd9bcfe	1.7010801
83	0x3f4fe455	0.8120778
84	0x3f827e26	1.0194747
85	0x3f8ef96b	1.1169866
86	0x3f4c4fa1	0.79809004
87	0x3f79a40e	0.9751595
88	0x3f663fad	0.8994091
89	0x3f3a1661	0.726904
90	0x3f52c787	0.82335705
91	0x3f8538f6	1.0408008
92	0x3f6d0f38	0.92601347
93	0x3f64455a	0.8916832
94	0x3fae6833	1.3625549
95	0x3f517793	0.8182308
96	0x3f6fca49	0.9366804
97	0x3f80fee1	1.0077783
98	0x3f82de3c	1.022407
99	0x3f51f0a3	0.8200781
100	0x3f637229	0.8884607
101	0x3fc7578a	1.557359
102	0x3f4a00d6	0.78907526
103	0x3f99d0a0	1.2016792
104	0x3f83c0b9	1.0293189
105	0x3f990942	1.195595
106	0x3f9bdab9	1.2176124
107	0x3f811b76	1.0086505
108	0x3f434c1a	0.76287997
109	0x3f646bf0	0.892272
110	0x3f47b1f8	0.78005934
111	0x3f634bd1	0.8878756
112	0x3f699f87	0.91259044
113	0x3f74fdba	0.95699656
114	0x3f41c25a	0.7568718
115	0x3f7d3019	0.98901516
116	0x3f44657c	0.7671735
117	0x3f943b4e	1.1580598
118	0x3f65adc8	0.89718294
119	0x3f7d1c88	0.9887166
120	0x3f8f4176	1.1191852
121	0x3f5b5e10	0.85690403
122	0x3f3addf2	0.7299491
123	0x3fa27a31	1.269354
124	0x3f8531d7	1.0405835
125	0x3f7194b8	0.9436755
126	0x3f52a6a2	0.8228551
127	0x3fbbb714	1.4665246

encoder.6.bias f4 [128]
0	0x3e6f16ee	0.2334859
1	0xbd8d83d4	-0.0690991
2	0x3e6e2399	0.23255767
3	0xbee75a54	-0.45186102
4	0x3e92704c	0.286013
5	0x3e810abe	0.25203508
6	0x3e7e9bca	0.24864116
7	0xbdf136f3	-0.11778059
8	0x3d15c58d	0.036565352
9	0x3c688f79	0.014194363
10	0xbdc960b2	-0.09832896
11	0x3e6d1e22	0.23156026
12	0x3e2d710d	0.16937657
13	0x3dc8390d	0.097765066
14	0x3e25ef46	0.16204557
15	0x3ba38b91	0.004991003
16	0x3e824ab1	0.2544761
17	0xbdd5bd93	-0.10436549
18	0x3e57d9f6	0.21079239
19	0xbd29fd91	-0.041501585
20	0x3e9e9d5c	0.3097943
21	0xbe3063c3	-0.17225556
22	0x3e6ef40e	0.23335287
23	0x3e61fdb3	0.22069435
24	0x389cf7b8	7.484801e-05
25	0x3e30bfab	0.17260616
26	0x3e9ecd62	0.3101607
27	0x3e0a3593	0.13497
28	0xbc8f9bb6	-0.017530303
29	0x3e21a2ed	0.15784808
30	0x3e2b8288	0.16749012
31	0x3e8e1b60	0.2775526
32	0x3bb40ed5	0.005494932
33	0x3e4f7811	0.20260645
34	0x3e0cfb53	0.13767748
35	0xbbf164dc	-0.0073667597
36	0xbd855648	-0.065105975
37	0x3e6c93ba	0.23103228
38	0x3e6e0f6a	0.23248067
39	0xbd737652	-0.05943901
40	0x3e42daad	0.1902873
41	0x3e830817	0.2559211
42	0x3e0db9c7	0.138404
43	0x3dc3206e	0.0952767
44	0x3b15a75d	0.0022835352
45	0x3d6a8752	0.057257958
46	0x3df7c065	0.12097243
47	0x3e360835	0.17776568
48	0xbdff13d4	-0.12454954
49	0x3c892a03	0.016743666
50	0x3e372cc6	0.17888173
51	0x3e38bf78	0.1804179
52	0x3cf48f1d	0.029853398
53	0x3e7cc8f2	0.2468603
54	0x3bb27d16	0.0054470403
55	0xbda702ea	-0.08154853
56	0xbd0cfe44	-0.034422174
57	0x3ea4c8b1	0.32184365
58	0x3e0d247c	0.13783449
59	0x3e75ccb3	0.24003868
60	0x3e8bdc8c	0.273167
61	0x3e1c9b87	0.15293704
62	0x3e5b66e3	0.21425967
63	0xbdedd06d	-0.1161202
64	0x3e8768d9	0.2644718
65	0xbd5c4c44	-0.05378367
66	0x3dd7b19d	0.10531924
67	0x3e5832e8	0.21113169
68	0x3e6f0614	0.23342162
69	0x3e033b8a	0.12815681
70	0xbd8d8f85	-0.0691214
71	0x3e136c08	0.1439668
72	0xbdb35da2	-0.087580934
73	0xbe8a4a2f	-0.27009723
74	0x3ea081a0	0.31348896
75	0x3d439354	0.047747925
76	0xbdcf0a5c	-0.10109398
77	0x3d9923d4	0.07477537
78	0xbc2d5dfa	-0.010581488
79	0x3dbef973	0.093249224
80	0xbdf5520c	-0.1197854
81	0xbe097d0c	-0.13426608
82	0x3d1ad1ff	0.037797924
83	0xbd90aa6f	-0.07063758
84	0xbe1d8c0c	-0.15385455
85	0x3e960011	0.29296926
86	0x3e81ed2e	0.25376266
87	0x3dd0f7db	0.10203525
88	0xbc1600f7	-0.0091555035
89	0x3d4a080e	0.049324088
90	0xbd9c54ca	-0.0763336
91	0x3e8363ad	0.25661984
92	0x3d40a2fb	0.04703043
93	0xbecb3308	-0.3968737
94	0xbd7b8869	-0.061409388
95	0x3e50ed33	0.20402984
96	0x3eabbe8b	0.3354381
97	0x3e93f521	0.28897956
98	0x3ba2296a	0.0049487846
99	0xbe24a43f	-0.1607828
100	0xbd4a2ce1	-0.049359206
101	0xbced4c52	-0.028967056
102	0x3e1600ad	0.14648695
103	0xbd6945b0	-0.056951225
104	0x3e426083	0.18982129
105	0x3e5ded77	0.21672617
106	0xbe57746e	-0.21040508
107	0x3c4e4b17	0.012591145
108	0x3e2cc888	0.16873372
109	0xbe24f96f	-0.16110776
110	0x3e865086	0.2623331
111	0x3e84cee2	0.2593909
112	0x3e885e2a	0.2663434
113	0xbe0879aa	-0.13327661
114	0x3e7c31ee	0.24628422
115	0x3e036a1f	0.1283345
116	0xbd36bfeb	-0.04461662
117	0x3c25ba34	0.010115195
118	0x3e763ea7	0.24047337
119	0x3e839952	0.25702912
120	0x3e0ae1c6	0.13562688
121	0x3e875f4d	0.26439896
122	0x3e6c869d	0.23098226
123	0x3ca699aa	0.020336945
124	0x3de7bf5d	0.113157965
125	0x3e7aba75	0.2448519
126	0xbb17f20b	-0.002318504
127	0xbd2af301	-0.041735653

encoder.6.running_mean f4 [128]
0	0x3f28fdc6	0.6601223
1	0x3ebd69f6	0.36994904
2	0x3f99ec61	1.2025262
3	0x3e6f9fa2	0.23400739
4	0x3f4df6f5	0.8045495
5	0x3f6bbf68	0.9208894
6	0x3fb87abd	1.4412457
7	0x3f633fcd	0.8876923
8	0x3ee250f0	0.44202375
9	0x3e0023b0	0.12513614
10	0x3dd093e6	0.101844594
11	0x3f4d459e	0.8018435
12	0x3fe503b2	1.7891753
13	0x3ebec594	0.37260115
14	0x3f4fd9a8	0.8119149
15	0x3eb8e809	0.3611453
16	0x3fcff20c	1.6245742
17	0x3f257929	0.64638
18	0x3f881c14	1.0633569
19	0x3f0374d3	0.51350135
20	0x3f37292f	0.71547216
21	0x3eb18dde	0.3467855
22	0x3f2e956d	0.68196756
23	0x3f795c09	0.9740606
24	0x3ee23a1f	0.44184968
25	0x3f6f5bde	0.93499553
26	0x3fc0f1c4	1.5073781
27	0x3ecd565a	0.40104944
28	0x3f3bbd68	0.73335886
29	0x3eaf007b	0.34180054
30	0x3ec52427	0.38504145
31	0x3f8b774f	1.0895785
32	0x3dc5bd3d	0.09655235
33	0x3fac6248	1.3467493
34	0x3f063fff	0.524414
35	0x3db82a8c	0.0899249
36	0x3eede422	0.46463114
37	0x3f8ecd05	1.1156317
38	0x3f67967a	0.90463984
39	0x3ec570a8	0.38562512
40	0x3f4e0133	0.8047058
41	0x3fa605d9	1.2970535
42	0x3f9e96a4	1.2389722
43	0x3f083649	0.5320783
44	0x3dc6d893	0.09709277
45	0x3ee71fa3	0.45141324
46	0x3f55ef48	0.8356824
47	0x3fb8247c	1.4386134
48	0x3f13c3f0	0.5772085
49	0x3ea04800	0.31304932
50	0x3f0a375f	0.5399074
51	0x3f83d94e	1.0300691
52	0x3f1c0fa9	0.60961396
53	0x3f57887e	0.84192646
54	0x3f0a6103	0.5405428
55	0x3e61e392	0.22059467
56	0x3f93d4b0	1.1549282
57	0x3f89ed1f	1.0775489
58	0x3fbbc092	1.4668143
59	0x3fc13670	1.5094738
60	0x3ede5e0c	0.43431127
61	0x3f70622a	0.93899786
62	0x3f500ef8	0.8127284
63	0x3f0899e6	0.5335983
64	0x3f07e92f	0.53090185
65	0x3ec323a4	0.3811313
66	0x3fb45b7b	1.4090418
67	0x3f7fe320	0.9995594
68	0x3ed29442	0.41128737
69	0x3ea3a337	0.3196046
70	0x3f5fb1cf	0.8738069
71	0x3f545271	0.82938296
72	0x3efc431a	0.49269944
73	0x3dab42d4	0.08362356
74	0x3f262060	0.6489315
75	0x3eb25bc0	0.34835625
76	0x3f807ec1	1.0038682
77	0x3f44ba59	0.76846844
78	0x3e677538	0.22603309
79	0x3ee3fc04	0.4452821
80	0x3faa7a40	1.3318558
81	0x3ea7e31d	0.3279046
82	0x3e09d657	0.1346067
83	0x3f307c1f	0.68939394
84	0x3f35e32b	0.71049756
85	0x3f29cc0d	0.6632698
86	0x3f102e14	0.5632031
87	0x3f5a4fb6	0.8527788
88	0x3e12ae29	0.1432425
89	0x3fe6fdce	1.8046205
90	0x3e859f3b	0.26098046
91	0x3f804d20	1.0023537
92	0x3f571a61	0.84024626
93	0x3e3e287a	0.18570128
94	0x3e3b78c8	0.18307793
95	0x3fab5c62	1.3387568
96	0x3f90d1f7	1.1314076
97	0x3f9a7cea	1.2069371
98	0x3f4c571f	0.79820436
99	0x3f3b3b62	0.73137486
100	0x3f2f7f30	0.6855345
101	0x3e2f9ad8	0.17148912
102	0x3f2d4710	0.6768656
103	0x3ec0c9fe	0.37654108
104	0x3f79600b	0.97412175
105	0x3edae2ff	0.4275131
106	0x3dd34de0	0.10317588
107	0x3e470e78	0.19439113
108	0x3f9a0bbf	1.2034835
109	0x3f049328	0.5178704
110	0x3fb23506	1.3922431
111	0x3fcd7a59	1.6052963
112	0x3f94df1c	1.1630588
113	0x3e904087	0.2817423
114	0x3fdb0c06	1.7113044
115	0x3f075aae	0.5287274
116	0x3f3fd973	0.74941176
117	0x3e6dbc39	0.23216332
118	0x3fbe552b	1.4869741
119	0x3f5df2a7	0.86698383
120	0x3f39014f	0.7226762
121	0x3fb5084d	1.4143158
122	0x3fb9a162	1.4502375
123	0x3e3efdf0	0.18651557
124	0x3edd4708	0.43218255
125	0x3f7d7429	0.9900537
126	0x3edfcb67	0.4370987
127	0x3e707d61	0.23485328

encoder.6.running_var f4 [128]
0	0x3f8f1d62	1.1180842
1	0x3f839c33	1.0282043
2	0x4027bd9b	2.6209476
3	0x3e3b5747	0.18295012
4	0x3fb67bb3	1.42565
5	0x3ff81f46	1.9384544
6	0x4078c558	3.887045
7	0x403bbc62	2.933373
8	0x3f140936	0.57826555
9	0x3e437311	0.19086863
10	0x3dfd86e4	0.12379244
11	0x3fea94d7	1.8326672
12	0x409871bf	4.763885
13	0x3eb324ae	0.34988922
14	0x4003e6b8	2.060957
15	0x3ebfbdfd	0.37449637
16	0x40c05dff	6.011474
17	0x3f7a3bc9	0.97747475
18	0x402376ec	2.5541334
19	0x3ef9724a	0.48720008
20	0x40961923	4.6905684
21	0x3e9728f2	0.29523426
22	0x3f87b64e	1.060251
23	0x3fdf3c6e	1.7440317
24	0x3f588364	0.84575486
25	0x3ff7e7a6	1.9367568
26	0x40910e3d	4.532988
27	0x3f13982d	0.57654077
28	0x3fa4772f	1.2848872
29	0x3f00443f	0.50104135
30	0x3f7bb11f	0.9831714
31	0x402d8509	2.7112448
32	0x3e08c7f3	0.13357525
33	0x40582080	3.3769836
34	0x3f6734cb	0.9031493
35	0x3de980bc	0.11401507
36	0x3f5f4fbb	0.87231034
37	0x4039b8a5	2.9018948
38	0x3fe0d221	1.7564126
39	0x3fa6a340	1.301857
40	0x3fc605fd	1.5470577
41	0x40749269	3.8214362
42	0x40b3d16c	5.619314
43	0x3fa007e3	1.2502407
44	0x3e20886c	0.15677041
45	0x3f192b00	0.5983124
46	0x402edeca	2.732348
47	0x405b8f96	3.4306388
48	0x3f47c088	0.78028154
49	0x3f0a84ac	0.5410869
50	0x3f7188f9	0.9434963
51	0x403183a2	2.7736592
52	0x4090b4b6	4.5220594
53	0x3fcc924d	1.5982147
54	0x40170108	2.359438
55	0x3ec34487	0.3813822
56	0x3ff6f5ac	1.9293723
57	0x4017bc87	2.3708818
58	0x404f1136	3.2354255
59	0x4065d933	3.5913818
60	0x3f24982a	0.64294684
61	0x4004e3c8	2.0764027
62	0x3faee4df	1.3663596
63	0x3f85543a	1.0416329
64	0x3f4a16c0	0.78940964
65	0x3f028bd9	0.5099464
66	0x406f065b	3.734763
67	0x3ff3c956	1.9045818
68	0x3f23e865	0.6402648
69	0x3f8444c2	1.0333483
70	0x3ff28a17	1.8948392
71	0x3fb2a7c2	1.3957446
72	0x3f3c8264	0.7363646
73	0x3de5c9ff	0.11220168
74	0x3f7aeb5c	0.9801538
75	0x3f61cfe5	0.88207847
76	0x3ff1e5b5	1.8898226
77	0x40c02d12	6.0055017
78	0x3eec6beb	0.46176085
79	0x400d9f9f	2.2128675
80	0x403d802f	2.9609487
81	0x3ef33ed3	0.4750887
82	0x3e60d2cf	0.21955417
83	0x3fb9390d	1.4470536
84	0x3fe6fcaa	1.8045857
85	0x3fa0b543	1.2555317
86	0x3f9247c2	1.1428149
87	0x3f5e4861	0.8682919
88	0x3ea2f4e7	0.3182747
89	0x409f6ccd	4.9820313
90	0x3f19c78a	0.600701
91	0x40226d3c	2.5379171
92	0x3fbb75a9	1.4645282
93	0x3e1c5187	0.15265475
94	0x3e983bf2	0.29733235
95	0x40599c7b	3.4001758
96	0x400403db	2.0627353
97	0x404b7d31	3.179516
98	0x4025bb24	2.5895472
99	0x3fb94c43	1.4476398
100	0x3f666b84	0.90007806
101	0x3e31f96b	0.17380302
102	0x400c9bb8	2.1970043
103	0x3f05affa	0.52221644
104	0x3ffbfbc5	1.9686209
105	0x3f1bd3d2	0.6087009
106	0x3e101adb	0.14072745
107	0x3f105667	0.5638184
108	0x40b8e979	5.7785
109	0x3f8b48f0	1.0881634
110	0x40742a25	3.8150723
111	0x4084a1f0	4.1447678
112	0x401f06f5	2.4847996
113	0x3f423ffe	0.75878894
114	0x40a4faff	5.155639
115	0x3f8b2eba	1.0873635
116	0x3fd921ba	1.6963418
117	0x3eb5459f	0.3540468
118	0x4066f4a8	3.6086826
119	0x3fba009a	1.4531434
120	0x3fc9e95e	1.5774343
121	0x40814865	4.040087
122	0x408ae533	4.3404784
123	0x3e62f9a7	0.22165547
124	0x3ef2f97e	0.47455972
125	0x402eab81	2.7292178
126	0x3f4b7bb8	0.79485655
127	0x3e93eb1d	0.28890315

decoder.0.weight f4 [64, 128, 3, 3]
0	0xbdecfe29	-0.11571915
1	0xbd9eb1cf	-0.07748758
2	0xbbb21f39	-0.005435851
3	0xbd647c83	-0.055782806
4	0xbd3ed7d2	-0.04659254
5	0xbd180f36	-0.03712388
6	0xbd612772	-0.05496926
7	0xbdd79e87	-0.105282836
8	0xbded0c03	-0.11574557
9	0xbe6cdbbb	-0.23130696
10	0xbe443f00	-0.19164658
11	0xbdad025e	-0.08447717
12	0xbd8c0042	-0.06835987
13	0xbd4e765f	-0.050405856
14	0x3c96b35b	0.01839607
15	0xbc594347	-0.013260669
16	0x3d7b6362	0.061374076
17	0x3dfd5da4	0.12371376
18	0x3e1474b9	0.14497651
19	0x3df2fb97	0.11864393
20	0x3c3fcde4	0.011706803
21	0x3e2c01eb	0.16797607
22	0x3e171992	0.14755848
23	0x3d6e7a88	0.058222324
24	0x3dbdc11b	0.092653476
25	0x3e0734db	0.13203757
26	0x3e2b3370	0.1671884
27	0x3ddcf487	0.107888274
28	0x3e3a21cb	0.18176953
29	0x3db3de0a	0.08782585
30	0xbe1e590c	-0.15463656
31	0xbda16fb7	-0.07882636
32	0xbd55cc85	-0.052197
33	0xbe60ad51	-0.21941115
34	0xbe657f4a	-0.22411838
35	0xbe2a903b	-0.16656582
36	0x3c7f6443	0.015587869
37	0x3d32704f	0.043564137
38	0x3cc3f450	0.023920208
39	0xbc44a7e1	-0.012002916
40	0xbc68e8f8	-0.0142157
41	0xbd043db4	-0.032285407
42	0xbd7bda01	-0.0614872
43	0xbdcaae74	-0.098965555
44	0xbdd1f810	-0.10252392
45	0xbdf5b785	-0.11997894
46	0xbdd2b1e5	-0.10287837
47	0x3d497fb6	0.04919406
48	0xbdc30b69	-0.09523661
49	0xbde5a885	-0.11213783
50	0xbcf9723a	-0.030449975
51	0x3d1a0715	0.03760441
52	0xbd35a73c	-0.04434894
53	0x3d3fadaa	0.04679648
54	0xbc63fb9a	-0.013914967
55	0xbbe73245	-0.007055553
56	0x3cc4b2e0	0.024011075
57	0xbd28c652	-0.041204758
58	0xbd27db91	-0.04098088
59	0x3a5c1032	0.0008394747
60	0xbbc33fd2	-0.0059585357
61	0xbcee01c7	-0.029053582
62	0x3d0b3d90	0.033994257
63	0xbde50559	-0.111826606
64	0xbdf37469	-0.11887438
65	0xbd5d507c	-0.054031834
66	0xbe039512	-0.12849835
67	0xbdc607d1	-0.096694596
68	0xbd79a18d	-0.060945082
69	0xbe0574f8	-0.13032901
70	0xbe01fea2	-0.12694791
71	0xbdb0edc5	-0.08639101
72	0x3c58ad32	0.013224887
73	0xbccb7791	-0.024837287
74	0xbd0d923c	-0.034563288
75	0x3bbccab5	0.0057614692
76	0xbd434006	-0.04766848
77	0xbdbe93c7	-0.0930553
78	0xbd9f4472	-0.07776727
79	0xbdb2e5e1	-0.08735252
80	0xbe2b7740	-0.16744709
81	0xbef76ad8	-0.48323703
82	0xbeff6fb8	-0.49889922
83	0xbebd9f3b	-0.37035546
84	0xbe561bd0	-0.20909047
85	0xbe4239e4	-0.18967396
86	0xbe2dc0b0	-0.16968036
87	0xbe27efd6	-0.16400084
88	0xbe4563b6	-0.19276318
89	0xbea4823a	-0.32130605
90	0x3e208de4	0.15679127
91	0x3e1a4171	0.15064026
92	0x3dad2d13	0.08455863
93	0x3d992936	0.074785635
94	0x3e1549a3	0.14578871
95	0x3dd5ac7b	0.10433289
96	0xbd8f8468	-0.07007676
97	0xbb921787	-0.004458371
98	0xbd8cfcbf	-0.06884145
99	0xbd843ea4	-0.0645726
100	0xbd4b4689	-0.049627814
101	0xbd05d539	-0.032674048
102	0xbd86c93e	-0.06581353
103	0xbd956b9a	-0.07295914
104	0xbd8ab4b8	-0.067727506
105	0xbd832030	-0.06402624
106	0xbd873323	-0.066015504
107	0xbc5e19c6	-0.01355595
108	0xbe3b77e9	-0.18307461
109	0xbdd1ea1a	-0.102497295
110	0x3c2ed941	0.010671915
111	0xbe3eb977	-0.18625437
112	0xbe3ef287	-0.18647204
113	0xbd911c1e	-0.07085441
114	0xbe09ed44	-0.13469416
115	0xbe3393b2	-0.1753681
116	0xbd9a8ba8	-0.075461686
117	0x3d0320de	0.032013766
118	0x3d27eab9	0.040995333
119	0x3d37d23d	0.044878233
120	0x3dd22f03	0.10262873
121	0x3d909bb1	0.07060946
122	0x3dcb902b	0.09939607
123	0x3e483cb2	0.19554403
124	0x3e6143da	0.2199854
125	0x3e74fb16	0.23923907
126	0x3caf96f9	0.021434294
127	0x3d53174c	0.05153589
128	0xbad3bb7b	-0.0016153896
129	0xbdfba432	-0.12287177
130	0xbe11d155	-0.1424001
131	0xbe144d22	-0.14482549
132	0xbdfff3d6	-0.1249768
133	0xbdbcb3b4	-0.09213963
134	0x3d5dd422	0.054157384
135	0xbe3ab191	-0.18231799
136	0xbe66ae84	-0.2252751
137	0xbea70d8e	-0.3262753
138	0xbde14804	-0.11000064
139	0xbe1345fe	-0.14382169
140	0xbe6b6d98	-0.22991025
141	0xbd99bb61	-0.07506443
142	0xbe0d191b	-0.13779108
143	0xbe28df7f	-0.16491507
144	0xbde04872	-0.10951318
145	0xbe3573d3	-0.17719965
146	0xbe1d6c43	-0.1537333
147	0xbdce72da	-0.100805
148	0xbe24deb8	-0.16100585
149	0xbdf76147	-0.12079101
150	0xbd6cc3d4	-0.057803944
151	0xbd7260d9	-0.059174392
152	0xbdf0b9c6	-0.117541835
153	0x3d6a86a8	0.057257324
154	0x3da440df	0.08020186
155	0x3cc4f52b	0.024042686
156	0x3e2871c3	0.16449647
157	0x3e1f2719	0.15542258
158	0x3e296931	0.16544034
159	0x3e1c03c9	0.15235819
160	0x3e631d38	0.22179115
161	0x3e8ee503	0.27909097
162	0xbcb8fc50	-0.02258125
163	0xbd9e73e0	-0.07736945
164	0x3ba871d2	0.0051405216
165	0xbb92e706	-0.0044831065
166	0xbd8ac9ae	-0.067767486
167	0xbcced0e4	-0.025246091
168	0x3d11b85a	0.035576202
169	0xbd8caf30	-0.06869352
170	0xbd8f07a8	-0.06983882
171	0x3cdc170b	0.026866456
172	0x3d8a9590	0.06766808
173	0x3d66666d	0.056250025
174	0xbc9d7a89	-0.019223468
175	0x3c99d4ec	0.018778287
176	0x3d4cdcfb	0.05001543
177	0x3bb321cd	0.005466676
178	0xbd4f6d68	-0.050641447
179	0xbca681df	-0.0203256
180	0xbed8d8ea	-0.42352992
181	0xbe14c179	-0.14526929
182	0x3df250cb	0.11831816
183	0xbec8b91b	-0.39203724
184	0xbe137dc1	-0.1440344
185	0x3e4809fe	0.19535062
186	0xbe88d69d	-0.26726237
187	0xbe19be88	-0.15014088
188	0x3d6c79ea	0.057733454
189	0x3d99dd20	0.07512879
190	0x3def207b	0.11676117
191	0xbd181570	-0.03712982
192	0x3d6ead2b	0.058270615
193	0x3e1ae3b4	0.15125924
194	0x3cc3b373	0.023889279
195	0xbd01837c	-0.031619534
196	0x3daf090a	0.08546646
197	0x3db5bcb8	0.08873886
198	0xbe488cad	-0.19584914
199	0xbe8623d0	-0.26199198
200	0xbdb43a9b	-0.088002406
201	0xbe353d86	-0.1769925
202	0xbe7f2899	-0.2491783
203	0xbdb46bed	-0.08809648
204	0xbdd87364	-0.10568884
205	0xbdfddb5a	-0.123953536
206	0x3d21f41f	0.039539453
207	0xbe07721f	-0.13227127
208	0xbdd2d2b1	-0.102940924
209	0x3bd3cba1	0.0064634834
210	0xbe93e9bd	-0.28889266
211	0xbe868378	-0.26272178
212	0xbe13713d	-0.14398666
213	0xbe9bbbd8	-0.3041675
214	0xbe9665f1	-0.2937465
215	0xbe43b646	-0.191125
216	0x3cd3e0e7	0.025864078
217	0xbdb2b0c5	-0.08725122
218	0x3d566698	0.052343935
219	0x3dc5966d	0.09647832
220	0xbd77b699	-0.060476873
221	0xbde84609	-0.11341483
222	0xbe146972	-0.14493349
223	0xbe73abb3	-0.23795967
224	0xbeabe661	-0.33574203
225	0x3c862047	0.016372813
226	0x3d364409	0.044498477
227	0xbd329267	-0.04359665
228	0x3db12222	0.086490884
229	0x3cd2dcff	0.025740145
230	0xbd2abf87	-0.04168656
231	0x3d758e79	0.059950326
232	0x3af52fa6	0.0018706217
233	0x3c94929c	0.018136315
234	0x3cdd9bc0	0.027051806
235	0xbcdc9fc3	-0.02693165
236	0xbd17150a	-0.0368853
237	0xbc71172a	-0.014714995
238	0xbcb340b2	-0.021881435
239	0xbd52a3f5	-0.051425893
240	0x3d41dfa1	0.04733241
241	0xba5978a4	-0.000829587
242	0x3c85d14f	0.016335158
243	0xbd32d2d4	-0.043658093
244	0xbd699787	-0.057029273
245	0xbda42f90	-0.08016884
246	0xbcb96e18	-0.022635505
247	0xbd79d75e	-0.060996406
248	0xbdecc3bc	-0.11560771
249	0x3d0a8a7d	0.03382348
250	0x3c487dcb	0.012237023
251	0xbe1202e3	-0.14258914
252	0x3dc5f4e2	0.09665848
253	0x3e089e05	0.1334153
254	0x3d85bf57	0.06530636
255	0x3e24125d	0.1602263

decoder.0.bias f4 [64]
0	0x3cfd0970	0.03088829
1	0x3e3700af	0.17871355
2	0x3d033724	0.032035008
3	0x3dfc8c0b	0.123313986
4	0x3ddac3e2	0.10681893
5	0xbeae2a96	-0.34016865
6	0x3d145c93	0.0362211
7	0xbe208038	-0.15673912
8	0xbd1ec07f	-0.038757797
9	0xbcceea97	-0.025258346
10	0x3d9faa7a	0.07796188
11	0xbdf2c80a	-0.11854561
12	0xbcaafb12	-0.020871673
13	0xbebc86c2	-0.36821562
14	0xbd20a136	-0.039216243
15	0x3df77ccd	0.12084351
16	0xbe296d48	-0.16545594
17	0xbe7898d0	-0.24277043
18	0xbe18fd33	-0.14940338
19	0x3d093df4	0.03350635
20	0x3dc49d9d	0.09600375
21	0x3d85b4fd	0.065286614
22	0xbe10b2af	-0.14130662
23	0xbde81169	-0.11331446
24	0xbd94aa6d	-0.07259069
25	0xbcab9487	-0.020944847
26	0x3d0cc732	0.034369655
27	0xbdd65bb5	-0.104667105
28	0xbdf03548	-0.117289126
29	0xbd3ef0c7	-0.046616342
30	0xbe3c4537	-0.18385778
31	0xbd0b5a9d	-0.034021962
32	0x3d4316a9	0.047629032
33	0xbdba92cd	-0.09110031
34	0xbd0c2c91	-0.03422219
35	0xbe1b65c3	-0.15175538
36	0xbe9d61cd	-0.3073868
37	0xbda1ef42	-0.07906963
38	0xbd8f2c2b	-0.06990846
39	0xbec3b994	-0.38227522
40	0xbdeeb7f9	-0.11656184
41	0x3cf89a34	0.030346967
42	0x3cd10566	0.02551527
43	0x3d35b8a3	0.044365536
44	0x3e1be6da	0.15224782
45	0xbdc419cc	-0.09575233
46	0xbc84909b	-0.016182235
47	0xbdf81cec	-0.121148914
48	0x3c2ec853	0.010667878
49	0xbd8a577c	-0.067549676
50	0xbe49906a	-0.19683996
51	0xbd4b26de	-0.049597614
52	0x3bad40a0	0.005287245
53	0xbe289f3d	-0.16466995
54	0xbc84977c	-0.016185515
55	0x3e0c1b3f	0.13682269
56	0xbe8a196e	-0.26972526
57	0x3e1ac507	0.15114222
58	0x3d67e18d	0.056611586
59	0x3dc753f3	0.09732809
60	0xba807034	-0.0009799064
61	0xbc9c9de2	-0.019118253
62	0x3ce5b332	0.028039549
63	0xbe68bec1	-0.22729017

decoder.2.weight f4 [64]
0	0x3f8f0a7c	1.1175075
1	0x3f8b1b38	1.0867682
2	0x3f7bc857	0.9835257
3	0x3f963bbf	1.1736983
4	0x3f957a10	1.1677876
5	0x3f99d20f	1.201723
6	0x3f7c54a9	0.9856668
7	0x3f84e9fb	1.0383905
8	0x3f812a9d	1.009113
9	0x3f7b811e	0.9824389
10	0x3f929295	1.1450983
11	0x3f8d34e4	1.1031766
12	0x3f93c479	1.1544334
13	0x3f8b79b7	1.089652
14	0x3f73bc40	0.9520912
15	0x3f97c1dc	1.1856036
16	0x3f8f5934	1.1199098
17	0x3f8e3861	1.1110955
18	0x3f836e77	1.0268086
19	0x3f77aaf1	0.9674521
20	0x3f92b5c8	1.1461725
21	0x3f65f032	0.89819634
22	0x3f868121	1.0508157
23	0x3f77afe6	0.96752775
24	0x3f863217	1.0484036
25	0x3f940eb1	1.1566983
26	0x3f974c59	1.1820174
27	0x3f9f2465	1.2432982
28	0x3fa1488f	1.2600268
29	0x3f7d3441	0.9890786
30	0x3f8af4d4	1.0855966
31	0x3f966bdb	1.1751665
32	0x3f93cdbe	1.1547163
33	0x3f9799c5	1.1843802
34	0x3f964284	1.1739049
35	0x3f86be14	1.0526757
36	0x3f8b0a16	1.0862453
37	0x3f81fea4	1.0155835
38	0x3f9b636f	1.213972
39	0x3f99c908	1.2014475
40	0x3f83047e	1.0235746
41	0x3fa42f02	1.2826846
42	0x3f821aab	1.0164388
43	0x3f8fe196	1.1240718
44	0x3f85d398	1.0455198
45	0x3f8d9fd2	1.1064398
46	0x3fa3aa1f	1.2786292
47	0x3f8ae1d3	1.0850166
48	0x3f9829f0	1.1887798
49	0x3f9eda5b	1.2410387
50	0x3f835273	1.0259537
51	0x3f935b1d	1.151218
52	0x3f73ba02	0.952057
53	0x3f8d4732	1.1037352
54	0x3f78c51f	0.9717578
55	0x3f938159	1.1523849
56	0x3f8fb2ff	1.12265
57	0x3f994f3b	1.1977304
58	0x3f7dd7e8	0.9915757
59	0x3f87fd73	1.0624222
60	0x3f81b7b7	1.013419
61	0x3f8898bb	1.067161
62	0x3f9874ca	1.1910641
63	0x3f8ea21b	1.1143221

decoder.2.bias f4 [64]
0	0x3ca1f5ab	0.019770464
1	0xbfc211b1	-1.5161649
2	0xbcaad521	-0.02085358
3	0x3cb2d79d	0.021831328
4	0x3c07ad52	0.008281069
5	0x3c219a71	0.009863482
6	0x3d8a108b	0.067414366
7	0xbd02b93d	-0.03191494
8	0x3c54e0b3	0.012993026
9	0xbcdebf27	-0.027190758
10	0xbe12c7d5	-0.14334042
11	0x3cafe6ec	0.021472417
12	0x3c0b9518	0.008519433
13	0xbcd9a27f	-0.026566742
14	0xbccda6a7	-0.02510388
15	0x3a3ac5fe	0.000712484
16	0x3c78761e	0.01516488
17	0xbc025115	-0.007953902
18	0xbc40f08e	-0.011776103
19	0xbc1f4153	-0.009720164
20	0xbd7d3a2a	-0.061823048
21	0xbf43a203	-0.76419085
22	0x3d317ef0	0.043333948
23	0xb8c3093c	-9.3000446e-05
24	0x3db55a85	0.08855156
25	0x3cebffe2	0.028808538
26	0x3cb351cf	0.021889595
27	0x3c9a7d2b	0.018858513
28	0x3c8f0edf	0.017463146
29	0xbddff8f4	-0.10936156
30	0xbd839815	-0.06425492
31	0x3cc47f2c	0.023986422
32	0x3caaedce	0.020865347
33	0x3cb741fa	0.022370327
34	0xbbab2532	-0.00522294
35	0x3c103af3	0.008803117
36	0xbcbaf1c8	-0.022820368
37	0x3d8123c4	0.0630565
38	0x3c707828	0.014677085
39	0xbd0744f6	-0.03302475
40	0x3daf7df8	0.085689485
41	0xbaed2637	-0.0018093054
42	0xbeb8e42c	-0.3611158
43	0x3da01ffa	0.07818599
44	0xbd871a03	-0.06596758
45	0x3d044190	0.032289088
46	0x3b56ea5b	0.0032793495
47	0xbead9bb9	-0.3390787
48	0x3c596fc9	0.013271281
49	0x3c7fc66f	0.015611275
50	0x3cef7e47	0.029235018
51	0x3d0ff73c	0.03514789
52	0xbd3401b7	-0.043946948
53	0x3abe7eb1	0.0014533607
54	0xbcb2f084	-0.021843202
55	0x3c99a782	0.018756632
56	0x3aec5b0e	0.0018032508
57	0x3cd21681	0.025645496
58	0x3da3d9b6	0.080005094
59	0xbc7639a0	-0.015028387
60	0x3dc52ef5	0.09628097
61	0x3c5b2085	0.0133744525
62	0x3b53070d	0.0032200248
63	0xbaf79eba	-0.0018891909
