models/model_01.pth (torch, 625452 bytes, 19 tensors)

encoder.0.weight f4 [64, 9, 3, 3]
0.13244504 -0.02676718 -0.12878378 -0.057005286 0.08698294 -0.20860896 -0.18663265 -0.19355606
-0.027174367 0.09711654 0.111332715 -0.08442153 -0.067805685 -0.01881484 -0.039165683 -0.15747643
-0.063647985 -0.017528139 0.08844393 -0.051545344 0.009932945 0.05046482 0.034906942 -0.16075985
-0.15998267 0.0015320869 -0.0515867 -0.13549183 0.062450092 -0.083894715 0.0040978543 -0.13240117
0.021426236 0.05654968 -0.017474158 0.056408923 -0.12273039 -0.08519905 -0.04616911 -0.010778062
0.020784462 -0.03464248 -0.100831434 -0.04137694 -0.12664449 -0.07411865 -0.066739626 0.02248285
0.03527165 0.07215211 -0.09830576 0.051455986 -0.010016866 0.011326701 -0.27596763 -0.094380364
0.0094275065 -0.15107818 -0.103092656 -0.020777268 0.01686744 -0.02695254 0.03254884 -0.104390636
0.09381501 0.03589996 -0.087552726 0.0021973953 -0.06711618 0.012515882 -0.02368726 -0.052731507
-0.16646828 -0.11144989 -0.08656689 -0.1238457 -0.069928326 0.040211484 0.05760732 -0.013406235
-0.01764518 -0.22208323 -0.15247712 -0.28056276 -0.25367135 -0.008999417 -0.03088712 -0.119315475
0.31852385 -0.08327761 -0.014925284 0.11142006 0.07265042 -0.063156754 0.23405266 0.20888554
0.13911852 0.4757122 0.13102198 0.20100644 0.26231185 0.1985376 -0.078281246 -0.17153738
-0.02574861 0.0054124766 0.15738823 -0.2986703 -0.100932814 -0.11099779 -0.07980284 -0.02227217
-0.0892516 -0.031328958 -0.06541088 -0.16872653 -0.15219611 -0.20968801 -0.08130834 -0.1405824
0.066792876 -0.079853304 -0.0151937045 -0.09191885 -0.0102827335 -0.043928508 0.06395955 -0.13062017
0.0043879095 0.11172629 0.011060333 -0.05083041 0.06954235 0.039174967 0.1393634 0.3244486
0.13092451 0.28936055 -0.01169985 -0.5072288 0.2973494 0.075686775 -0.061940987 0.005242876
-0.01229983 -0.09546129 -0.038850956 0.059618402 -0.10030691 -0.014940882 -0.048094265 0.0011304013
-0.08598868 -0.018746339 0.096602984 0.0034208633 0.100807436 -0.007786678 0.06729225 0.016212875
0.04878041 0.007592785 -0.059971448 -0.123434044 -0.035657085 -0.02137573 -0.05583141 0.07718731
0.092949726 -0.078447804 -0.0192561 0.017012421 0.090059996 -0.07460687 0.032442316 0.047672987
-0.017804049 -0.0015456975 -0.10505043 -0.049954772 -0.0076530236 -0.101419315 0.09151585 -0.07602584
-0.022295048 -0.05571597 -0.08913716 -0.10897098 0.07237839 0.048072148 0.08463655 -0.03172181
0.08956849 0.05376136 -0.03530228 -0.086386845 -0.0515186 -0.029538274 -0.06746872 -0.030754002
-0.016385235 0.00025639802 -0.10191471 -0.028681748 0.0401429 0.08802349 0.040481605 0.07999641
0.0873531 0.064431764 -0.05061359 -0.1096265 -0.070461676 -0.06559743 -0.09907244 0.025043197
0.080858506 -0.096020475 -0.115434244 -0.12529965 -0.123919785 0.100850746 -0.084906355 0.0028054342
-0.0383853 -0.12884805 0.055376463 0.029249907 0.03169902 -0.036137898 -0.105607204 0.06581753
-0.09621921 -0.074197836 -0.10974937 -0.075545356 -0.09104089 -0.0790673 0.04038538 -0.018412635
-0.01774767 -0.044112712 0.07431466 -0.22701146 0.2691794 0.062140442 -0.18720701 0.22358175
-0.18314208 -0.24096261 -0.119513124 0.039617393 -0.1560642 0.25716916 0.030945558 -0.22127591
00000000: ac9f 073e d846 dbbc e5df 03be 607e 69bd
00000010: 1d24 b23d 969d 55be a11c 3fbe 8f33 46be
00000020: c79c debc 09e5 c63d 6802 e43d 32e5 acbd
00000030: b5dd 8abd 9421 9abc 326c 20bd 8041 21be
00000040: e059 82bd 2c97 8fbc 1722 b53d 3621 53bd
00000050: cabd 223c 33b4 4e3d 95fa 0e3d 3b9e 24be
00000060: 7fd2 23be 4ed0 c83a 934c 53bd 5fbe 0abe
00000070: abcb 7f3d fed0 abbd 4b47 863b 2c94 07be
00000080: 1386 af3c a3a0 673d f725 8fbc 0b0d 673d
00000090: 125a fbbd d77c aebd d21b 3dbd 7896 30bc
000000a0: 2d44 aa3c 46e5 0dbd b680 cebd de7a 29bd
000000b0: 18af 01be 85cb 97bd c9ae 88bd f42d b83c
000000c0: 0179 103d 7cc4 933d 8854 c9bd 83c3 523d
000000d0: c81d 24bc a193 393c a14b 8dbe 7e4a c1bd
000000e0: d475 1a3c 3db4 1abe 3e22 d3bd 1735 aabc
000000f0: 962d 8a3c 93cb dcbc ef51 053d c2ca d5bd
00000100: 1522 c03d d60b 133d d84e b3bd 2d02 103b
00000110: 3574 89bd 6a0f 4d3c c90b c2bc fefc 57bd
00000120: a976 2abe d73f e4bd fb49 b1bd d0a2 fdbd
00000130: 9536 8fbd ccb4 243d a7f5 6b3d d3a5 5bbc
00000140: a08c 90bc c969 63be f622 1cbe eca5 8fbe
00000150: 36e1 81be 4a72 13bc fc06 fdbc ac5b f4bd
00000160: 8f15 a33e 748d aabd 2e89 74bc 3330 e43d
00000170: bec9 943d 5458 81bd 80ab 6f3e 17e6 553e
00000180: 1675 0e3e 8d90 f33e a02a 063e a2d4 4d3e
00000190: bd4d 863e 714d 4b3e eb51 a0bd 7fa7 2fbe
000001a0: c0ee d2bc 255b b13b 612a 213e 50eb 98be
000001b0: ddb5 cebd cf52 e3bd ac6f a3bd 2074 b6bc
000001c0: 8bc9 b6bd cb52 00bd 24f6 85bd a6c6 2cbe
000001d0: 4cd9 1bbe 74b8 56be fd84 a6bd d5f4 0fbe
000001e0: b4ca 883d 218a a3bd 04ef 78bc f33f bcbd
000001f0: e978 28bc 61ee 33bd 39fd 823d 4bc1 05be
00000200: 74c8 8f3b c1d0 e43d 6636 353c 8c33 50bd
00000210: 386c 8e3d ee75 203d 47b5 0e3e 201e a63e
00000220: 1311 063e 1127 943e bab0 3fbc bfd9 01bf
00000230: 2e3e 983e ab01 9b3d d5b5 7dbd 6ecc ab3b
00000240: 3a85 49bc 3581 c3bd 2e22 1fbd 6d32 743d
00000250: b66d cdbd 9aca 74bc 7efe 44bd f929 943a
00000260: d51a b0bd ec91 99bc c9d7 c53d 9030 603b
00000270: 2174 ce3d 6427 ffbb 85d0 893d ddd0 843c
00000280: f8cd 473d e6cc f83b 9fa4 75bd fdca fcbd
00000290: 2a0d 12bd 281c afbc 7aaf 64bd 6114 9e3d
000002a0: 6d5c be3d 3ea9 a0bd f8be 9dbc a25d 8b3c
000002b0: 6071 b83d 7dcb 98bd 3ce2 043d c044 433d
000002c0: ccd9 91bc 0099 caba ae24 d7bd 609d 4cbd
000002d0: 37c6 fabb eeb4 cfbd a96c bb3d 70b3 9bbd
000002e0: 1ba4 b6bc 6e36 64bd 8b8d b6bd 2d2c dfbd
000002f0: 1f3b 943d 4de7 443d ed55 ad3d bbee 01bd
00000300: af6f b73d df34 5c3d 2099 10bd 96eb b0bd
00000310: 2b05 53bd 40fa f1bc 0a2d 8abd d1ef fbbc
00000320: 543a 86bc 296d 8639 a9b8 d0bd fcf5 eabc
00000330: e26c 243d a945 b43d 0ad0 253d 28d5 a33d
00000340: 2fe6 b23d cdf4 833d 3250 4fbd dc83 e0bd
00000350: 364e 90bd f257 86bd 7ee6 cabd 6427 cd3c
00000360: 2599 a53d 62a6 c4bd ca68 ecbd 8d4e 00be
00000370: a8c9 fdbd d68a ce3d 62e3 adbd 60db 373b
00000380: e839 1dbd bef0 03be 6ed2 623d 809d ef3c
00000390: d5d6 013d 5505 14bd 9748 d8bd 57cb 863d
000003a0: 940e c5bd 09f5 97bd 47c4 e0bd 86b7 9abd
000003b0: a573 babd 09ee a1bd 246b 253d 18d6 96bc
000003c0: 9063 91bc 88af 34bd 4932 983d b175 68be
000003d0: e2d1 893e fa86 7e3d 32b3 3fbe 9df2 643e
000003e0: 9989 3bbe e7be 76be 4cc3 f4bd d945 223d
000003f0: 4bcf 1fbe adab 833e 8a81 fd3c 2796 62be

encoder.0.bias f4 [64]
-0.040563393 0.14214356 -0.057418823 0.04861653 -0.05034015 0.23183252 -0.057576668 -0.11356463
0.19604392 0.20120049 -0.0020598555 -0.023094762 -0.10266003 -0.04629957 -0.19175103 -0.100747004
0.35007975 -0.08495612 -0.2823375 0.016406775 -0.02174254 0.10858436 -0.3086389 -0.044759728
-0.027358515 -0.092178784 -0.12136153 -0.038039766 -0.059501085 -0.026819967 0.21286845 -0.11711385
-0.023382807 -0.059562694 0.073047824 0.11018773 -0.008377787 -0.029040746 -0.0717924 -0.1374341
0.246468 -0.05338387 -0.0919326 -0.10807904 0.077791005 -0.07197798 0.10480705 -0.059174
-0.095186256 -0.10069459 -0.056892645 0.04099125 0.05145005 0.27947482 0.14285251 -0.05824981
0.07547043 -0.098243624 -0.013459254 0.1808502 -0.11971014 0.381826 0.2904799 -0.10352715
00000000: cd25 26bd 158e 113e 0030 6bbd 2022 473d
00000010: 7931 4ebd 8165 6d3e 83d5 6bbd 9394 e8bd
00000020: bdbf 483e 8007 4e3e a4fe 06bb 3a31 bdbc
00000030: 6c3f d2bd 9ea4 3dbd 625a 44be 7254 cebd
00000040: a73d b33e 79fd adbd 8a8e 90be 8067 863c
00000050: 691d b2bc 7a61 de3d eb05 9ebe fa55 37bd
00000060: f71e e0bc 3bc8 bcbd 658c f8bd 96cf 1bbd
00000070: 69b7 73bd 8cb5 dbbc 30fa 593e 63d9 efbd
00000080: 4d8d bfbc 03f8 73bd 199a 953d 1baa e13d
00000090: fc42 09bc dce6 edbc e507 93bd 86bb 0cbe
000000a0: 1b62 7c3e 0ba9 5abd 2947 bcbd 8b58 ddbd
000000b0: e450 9f3d 3169 93bd 14a5 d63d 7060 72bd
000000c0: 03f1 c2bd f738 cebd 4308 69bd 71e6 273d
000000d0: 4abd 523d 5317 8f3e ee47 123e 5a97 6ebd
000000e0: 3e90 9a3d f433 c9bd 3484 5cbc cb30 393e
000000f0: 972a f5bd b37e c33e c8b9 943e 0b06 d4bd

encoder.2.weight f4 [64]
0.8094858 1.5182786 0.9798698 0.554866 0.9780179 1.1289401 0.9737972 0.9877257
1.2976556 1.3155923 0.9013218 0.8941037 0.9846936 0.712393 0.8464902 0.98057294
0.9939049 0.83542347 0.9485699 0.19780625 0.994436 1.7002113 0.9868964 0.97977877
0.9331197 0.9384837 0.9865154 0.6117961 0.881075 0.8525377 0.2890607 0.9868368
0.9960983 0.98928154 1.1133372 0.54456615 0.8107565 0.7483194 0.9799079 0.9718637
0.7932547 0.9936113 0.9542035 0.9877138 0.59558725 0.9744908 1.1587863 0.98193765
0.98761266 0.9685706 0.9887736 1.0120862 0.45446214 1.2115806 0.59080464 0.95540935
0.70882124 0.9174051 0.7420662 0.49274966 0.94985276 1.2026542 0.9157264 0.9936463
00000000: 763a 4f3f f456 c23f bfd8 7a3f b30b 0e3f
00000010: 625f 7a3f 1c81 903f c64a 793f 97db 7c3f
00000020: 9419 a63f 5465 a83f 07bd 663f fbe3 643f
00000030: e114 7c3f 635f 363f 95b3 583f d406 7b3f
00000040: 8d70 7e3f 50de 553f 7ad5 723f b98d 4a3e
00000050: 5c93 7e3f 86a0 d93f 3ea5 7c3f c8d2 7a3f
00000060: efe0 6e3f 7840 703f 468c 7c3f ab9e 1c3f
00000070: 228e 613f e93f 5a3f c4ff 933e 56a1 7c3f
00000080: 4c00 7f3f 8e41 7d3f d581 8e3f b068 0b3f
00000090: bd8d 4f3f dc91 3f3f 3edb 7a3f 0fcc 783f
000000a0: bd12 4b3f 4f5d 7e3f ae46 743f d0da 7c3f
000000b0: 6878 183f 3b78 793f 1c53 943f 4460 7b3f
000000c0: 2fd4 7c3f 3ef4 773f 4420 7d3f 0a8c 813f
000000d0: 43af e83e 1315 9b3f f93e 173f b595 743f
000000e0: 4f75 353f 10db 6a3f 0df8 3d3f af49 fc3e
000000f0: 8d29 733f 93f0 993f 0c6d 6a3f 9b5f 7e3f

encoder.2.bias f4 [64]
0.00165427 0.0890431 -0.083331555 0.094247654 -0.14678001 0.30172887 0.00709653 0.13887626
0.08570617 0.091377355 0.00021330027 -0.007172992 -0.09097544 -0.005065494 0.13090296 0.12003456
0.40351862 -2.9616642e-05 0.01619224 0.09702275 0.005290286 0.11904979 0.28466505 -0.0072669038
-0.002802598 0.0069774725 -0.0030606715 0.014756872 0.22301222 -0.0044990224 0.15144457 0.13310356
0.006800895 -0.12693742 0.15076028 0.089745805 0.13592713 0.044459846 0.0072350535 0.13467088
0.4761832 0.0040582856 0.12643954 -0.13322529 0.08194413 -0.0027328373 0.22654036 0.0063494616
0.14334218 -0.0032805672 -0.1441583 0.20885414 0.11314597 0.09612512 0.14467815 0.10440852
-0.0408098 -0.001446258 0.004058225 0.095010504 -0.0007215141 0.1711079 0.036678124 0.0030277283
00000000: 17d4 d83a 3b5c b63d bca9 aabd ea04 c13d
00000010: 804d 16be 357c 9a3e 028a e83b 9435 0e3e
00000020: b786 af3d 0d24 bb3d 5ba9 5f39 6b0b ebbb
00000030: 5551 babd 72fc a5bb 6d0b 063e aed4 f53d
00000040: fe99 ce3e 4171 f8b7 97a5 843c ddb3 c63d
00000050: 235a ad3b 60d0 f33d 9ebf 913e 351f eebb
00000060: cbab 37bb 48a3 e43b 8c95 48bb cfc6 713c
00000070: 515d 643e 896c 93bb 4914 1b3e 4d4c 083e
00000080: 0bda de3b e2fb 01be e760 1a3e a6cc b73d
00000090: 7b30 0b3e 871b 363d 0714 ed3b 2ae7 093e
000000a0: 49ce f33e 5efb 843b 5e79 013e 366c 08be
000000b0: 53d2 a73d 6719 33bb 32fa 673e 250f d03b
000000c0: 4bc8 123e c9fe 56bb 3c9e 13be dcdd 553e
000000d0: 13b9 e73d 3fdd c43d 8226 143e 22d4 d53d
000000e0: 2d28 27bd 5e90 bdba dcfa 843b de94 c23d
000000f0: fe23 3dba e936 2f3e cd3b 163d da6c 463b

encoder.2.running_mean f4 [64]
2.1599337e-14 0.148583 6e-45 0.011655197 6e-45 0.017821703 6e-45 6e-45
0.17052373 0.1455717 6e-45 3.8418075e-06 6e-45 1.00103155e-22 2.9973166e-06 6e-45
0.07845023 6e-45 0.16965309 0.9991652 6e-45 0.11787526 0.59531134 6e-45
6e-45 6e-45 6e-45 5.059139e-05 0.34845388 6e-45 1.0581944 6e-45
6e-45 6e-45 0.18889089 0.005121519 0.0133204935 0.00040183205 6e-45 6e-45
0.048538927 6e-45 6e-45 6e-45 0.00212063 6e-45 0.09238845 6e-45
6e-45 6e-45 6e-45 0.27655616 0.038507443 0.27874672 0.008941147 6e-45
0.25621745 6e-45 9.101279e-08 0.0061094514 6e-45 0.3923753 0.4253087 6e-45
00000000: ae8c c228 2426 183e 0400 0000 70f5 3e3c
00000010: 0400 0000 d2fe 913c 0400 0000 0400 0000
00000020: c69d 2e3e bf10 153e 0400 0000 e0e8 8036
00000030: 0400 0000 da08 f21a 8225 4936 0400 0000
00000040: 84aa a03d 0400 0000 8ab9 2d3e 4ac9 7f3f
00000050: 0400 0000 9668 f13d 5366 183f 0400 0000
00000060: 0400 0000 0400 0000 0400 0000 1732 5438
00000070: 8c68 b23e 0400 0000 ea72 873f 0400 0000
00000080: 0400 0000 0400 0000 9d6c 413e 6ad2 a73b
00000090: 333e 5a3c fcac d239 0400 0000 0400 0000
000000a0: c1d0 463d 0400 0000 0400 0000 0400 0000
000000b0: 44fa 0a3b 0400 0000 2836 bd3d 0400 0000
000000c0: 0400 0000 0400 0000 0400 0000 c598 8d3e
000000d0: fbb9 1d3d e4b7 8e3e e37d 123c 0400 0000
000000e0: ef2e 833e 0400 0000 cf72 c333 cb31 c83b
000000f0: 0400 0000 6ae5 c83e 10c2 d93e 0400 0000

encoder.2.running_var f4 [64]
2.6706864e-16 0.0014822127 6e-45 0.004114691 6e-45 0.003587025 6e-45 6e-45
0.0024835924 0.0045447825 6e-45 2.08357e-07 6e-45 3.312056e-24 1.2771985e-06 6e-45
0.011183487 6e-45 0.04197676 0.2966077 6e-45 0.002653217 0.17298198 6e-45
6e-45 6e-45 6e-45 1.10925375e-05 0.036594927 6e-45 0.22433756 6e-45
6e-45 6e-45 0.0094659785 0.0004062682 0.007175516 4.780013e-05 6e-45 6e-45
0.0058721597 6e-45 6e-45 6e-45 0.00019320227 6e-45 0.0035830769 6e-45
6e-45 6e-45 6e-45 0.017741311 0.011374867 0.003033645 0.0011692095 6e-45
0.023739906 6e-45 1.5967782e-08 0.00069047505 6e-45 0.005462866 0.019884057 6e-45
00000000: 60f4 9925 ce46 c23a 0400 0000 88d4 863b
00000010: 0400 0000 4b14 6b3b 0400 0000 0400 0000
00000020: c4c3 223b 66ec 943b 0400 0000 bcb8 5f34
00000030: 0400 0000 0421 8018 356c ab35 0400 0000
00000040: f23a 373c 0400 0000 d3ef 2b3d f7dc 973e
00000050: 0400 0000 98e1 2d3b 3022 313e 0400 0000
00000060: 0400 0000 0400 0000 0400 0000 161a 3a37
00000070: 90e4 153d 0400 0000 bfb8 653e 0400 0000
00000080: 0400 0000 0400 0000 3117 1b3c 6500 d539
00000090: 9720 eb3b 007d 4838 0400 0000 0400 0000
000000a0: 3f6b c03b 0400 0000 0400 0000 0400 0000
000000b0: 5796 4a39 0400 0000 0ed2 6a3b 0400 0000
000000c0: 0400 0000 0400 0000 0400 0000 3a56 913c
000000d0: a65d 3a3c 1ed0 463b 2940 993a 0400 0000
000000e0: 317a c23c 0400 0000 8629 8932 ff00 353a
000000f0: 0400 0000 d701 b33b e4e3 a23c 0400 0000

encoder.3.weight f4 [128, 64, 3, 3]
0.13297829 0.029074702 0.092934385 0.100146845 -0.0027597025 0.026136046 0.038204197 0.011145064
0.041031633 0.020806944 0.1721906 -0.06821821 -0.14610167 0.2807891 -0.11948167 -0.17422807
-0.17680104 0.11182457 0.16165017 0.1457608 0.20437098 0.14768061 0.09930953 0.15858243
0.16668361 0.1843146 0.18088426 -0.13638493 -0.072761446 -0.114162676 -0.060803086 -0.16031419
-0.113103695 -0.10099446 -0.14996465 -0.08830526 0.16398847 0.13379176 0.20407265 0.13625105
0.1379538 0.1950302 0.21013889 0.2018475 0.22151476 -0.031568572 -0.040312406 -0.00696966
0.0011616512 0.037012998 -0.001098113 -0.058575813 -0.06592002 -0.074764244 -0.12648816 -0.11168443
-0.059723232 -0.079497576 -0.10081538 -0.04143238 -0.14695126 -0.11907375 -0.030384807 -0.15820062
-0.13008429 -0.16880041 -0.096486785 -0.15996055 -0.16922976 -0.16294679 -0.14586946 -0.21683198
0.08540318 0.063888125 0.06570537 -0.0721653 -0.004682012 0.16752362 -0.28044432 -0.18156731
0.06316957 -0.39156243 -0.15975918 -0.0057230084 -0.0069749495 0.2584209 -0.0063502877 0.18133056
0.032398902 0.09390353 -0.0069069327 0.004775497 -0.025668725 -0.0029827831 0.038843185 -0.0030286051
-0.007663696 -0.016437469 0.009125682 0.033774085 -0.016242761 -0.015404892 0.039168276 0.042831462
0.054352846 -0.0054943957 -0.04512519 -0.07023917 0.15120041 0.17822917 0.15499818 0.13751128
0.12485756 0.17424089 0.17804334 0.19537379 0.23190004 0.00570682 0.033429127 0.03258045
0.07930411 0.03574116 0.03625626 -0.019518116 -0.06748165 -0.06968145 -0.165049 -0.15334247
-0.14887187 -0.10652551 -0.10099166 -0.21212406 -0.17390579 -0.16949536 -0.19992091 -0.14186434
-0.114841305 -0.19978696 -0.11139938 -0.15605468 -0.16090219 -0.20941761 -0.15453874 -0.2281544
0.06500578 -0.04457038 -0.28230008 0.048630927 0.13105828 -0.08302435 -0.10851228 -0.0013518326
-0.13341701 -0.0622216 -0.13177364 -0.046216436 -0.012267194 -0.11912434 -0.047590304 -0.06211377
-0.05037266 -0.04132453 -0.34709272 -0.22390021 -0.025047814 -0.3096818 -0.22205396 -0.019536523
-0.3295721 -0.08609908 -0.022354174 -0.17976455 -0.13990967 -0.011777696 -0.14351183 -0.08050999
0.018149307 -0.04511063 0.014938498 0.026450358 -0.044492513 -0.040841073 -0.023072174 0.044258337
0.02207819 0.012013108 0.02938424 0.018116092 0.046399757 0.018823586 0.4316443 -0.16831079
0.13164826 0.4238987 -0.011934415 0.10487339 0.19003288 0.19930261 -0.12798725 -0.023831949
-0.019489462 0.06393759 0.14891407 0.10471594 0.22518249 0.16185515 0.13218962 0.05049937
0.04391957 0.06615594 0.023063773 0.022823462 -0.0030004415 0.08169849 0.057589356 0.032791387
0.025996266 0.01967061 -0.058726963 -0.0426736 -0.015482496 -0.08087368 -0.019345347 0.01238375
-0.057471145 0.029234352 -0.026218174 0.012914466 0.0375858 0.004879087 0.0658398 -0.023558142
0.034049522 0.039299425 0.024933584 0.017234502 -0.062964104 -0.043555047 -0.04744497 -0.073168606
-0.019288376 -0.0036343182 -0.053514704 -0.00984751 -0.008394964 -0.057887163 -0.08265423 -0.109486386
-0.043064386 -0.053597424 -0.08466874 -0.10688416 -0.21404314 -0.32987767 -0.1902445 -0.25594187
00000000: 762b 083e 122e ee3c 6254 be3d ca19 cd3d
00000010: 20dc 34bb 431b d63c 017c 1c3d c999 363c
00000020: c910 283d 5373 aa3c bc52 303e fdb5 8bbd
00000030: ad9b 15be 97c3 8f3e ceb2 f4bd d868 32be
00000040: 550b 35be 4804 e53d 9f87 253e 5242 153e
00000050: a046 513e 9639 173e cb62 cb3d 6f63 223e
00000060: 1caf 2a3e f7bc 3c3e b939 393e 7ea8 0bbe
00000070: f403 95bd 1fce e9bd a80c 79bd 6729 24be
00000080: e9a2 e7bd 2fd6 cebd 5590 19be 63d9 b4bd
00000090: 98ec 273e b500 093e 6cf8 503e 6585 0b3e
000000a0: c343 0d3e ffb5 473e a62e 573e 1cb1 4e3e
000000b0: c4d4 623e 0c4e 01bd 9f1e 25bd bf61 e4bb
000000c0: 8c42 983a f19a 173d 8fee 8fba 31ed 6fbd
000000d0: 1301 87bd ff1d 99bd 1d86 01be ceba e4bd
000000e0: 59a0 74bd a0cf a2bd 4b78 cebd 00b5 29bd
000000f0: 647a 16be f0dc f3bd 8fe9 f8bc 58ff 21be
00000100: d134 05be 04da 2cbe dd9a c5bd b3cc 23be
00000110: 914a 2dbe 86db 26be ce5e 15be 3409 5ebe
00000120: dde7 ae3d c7d7 823d 8990 863d 67cb 93bd
00000130: 906b 99bb 508b 2b3e 6696 8fbe c8ec 39be
00000140: 0c5f 813d df7a c8be e997 23be 1388 bbbb
00000150: 1e8e e4bb bf4f 843e 1316 d0bb b8ae 393e
00000160: b6b4 043d 7e50 c03d 8d53 e2bb c67b 9c3b
00000170: 3847 d2bc cc7a 43bb 081a 1f3d 907b 46bb
00000180: be1f fbbb dfa7 86bc e283 153c b256 0a3d
00000190: 8a0f 85bc cd64 7cbc ea6e 203d 0b70 2f3d
000001a0: 17a1 5e3d 550a b4bb 31d5 38bd 8ed9 8fbd
000001b0: 48d4 1a3e b581 363e d8b7 1e3e c2cf 0c3e
000001c0: 52b5 ff3d 346c 323e fe50 363e 1110 483e
000001d0: 3477 6d3e 4700 bb3b fbec 083d 1473 053d
000001e0: 316a a23d 5365 123d 7281 143d 75e4 9fbc
000001f0: d233 8abd 26b5 8ebd 9b02 29be cf05 1dbe
00000200: de71 18be 0c2a dabd b7d4 cebd 0d37 59be
00000210: 5c14 32be 3190 2dbe 11b8 4cbe e344 11be
00000220: eb31 ebbd f494 4cbe 5c25 e4bd cccc 1fbe
00000230: 8bc3 24be 9271 56be 673f 1ebe 4fa1 69be
00000240: c021 853d 6e8f 36bd a389 90be 3931 473d
00000250: 2434 063e ac08 aabd b03b debd fa2f b1ba
00000260: 789e 08be 14dc 7ebd abef 06be 724d 3dbd
00000270: 57fc 48bc 76f7 f3bd 0dee 42bd 026b 7ebd
00000280: 9053 4ebd e943 29bd 23b6 b1be 1946 65be
00000290: 1331 cdbc 9d8e 9ebe 1d62 63be 0f0b a0bc
000002a0: adbd a8be b754 b0bd 1a20 b7bc 3314 38be
000002b0: 7b44 0fbe 3df7 40bc c4f4 12be 6ce2 a4bd
000002c0: dbad 943c edc5 38bd 9ac0 743c 6cae d83c
000002d0: c83d 36bd f848 27bd db01 bdbc 3b48 353d
000002e0: 52dd b43c a0d2 443c 38b7 f03c 3368 943c
000002f0: ac0d 3e3d ec33 9a3c 7b00 dd3e aa59 2cbe
00000300: cdce 063e 4009 d93e 9188 43bc dcc7 d63d
00000310: fb97 423e fc15 4c3e 170f 03be 383b c3bc
00000320: 5da8 9fbc b6f1 823d ee7c 183e 5075 d63d
00000330: 3d96 663e 5bbd 253e b75c 073e 6dd8 4e3d
00000340: 02e5 333d c47c 873d 3df0 bc3c 45f8 ba3c
00000350: 0ea3 44bb 8a51 a73d d1e2 6b3d 4350 063d
00000360: 1ff6 d43c 4224 a13c af8b 70bd 83ca 2ebd
00000370: 4baa 7dbc 1aa1 a5bd 227a 9ebc 36e5 4a3c
00000380: dd66 6bbd e17c ef3c 7fc7 d6bc 3297 533c
00000390: 91f3 193d c0e0 9f3b 04d7 863d 01fd c0bc
000003a0: 8377 0b3d 6ff8 203d 8441 cc3c 5f2f 8d3c
000003b0: 53f3 80bd c766 32bd a855 42bd 6cd9 95bd
000003c0: a802 9ebc be2d 6ebb 3c32 5bbd 7357 21bc
000003d0: 088b 09bc 171b 6dbd 9f46 a9bd 663a e0bd
000003e0: 4864 30bd f988 5bbd ce66 adbd 15e6 dabd
000003f0: 202e 5bbe bae5 a8be 74cf 42be d00a 83be

encoder.3.bias f4 [128]
-0.17037702 -0.08094435 -0.22200386 -0.23128213 -0.08734692 -0.07726691 -0.24564527 0.012485284
-0.27228782 -0.27050853 -0.08558713 -0.16617419 -0.18028152 -0.07650804 -0.07501952 0.011675516
-0.1330114 0.052944917 -0.25726682 -0.15289366 -0.1445135 -0.16997756 -0.052653722 0.061608464
-0.102183945 -0.15929544 0.07439681 -0.15683627 -0.09639388 -0.05694741 0.05123422 -0.02940808
-0.026350321 -0.08007706 -0.022369538 -0.11756481 -0.16610877 -0.23176539 0.18750544 -0.25328293
-0.11014989 -0.00938615 -0.11281058 -0.2145187 -0.09737768 -0.34698677 -0.21337335 -0.08617573
-0.2061914 0.026000775 -0.21345943 -0.16872792 -0.1120504 -0.10898515 -0.18607463 -0.16074052
-0.110013105 0.03644917 -0.09766423 -0.1732807 -0.2735247 -0.08046279 -0.35422507 0.09696416
-0.1773647 -0.015596249 -0.3031676 -0.07314691 -0.22374026 -0.17239858 -0.11571699 -0.08712872
-0.35806787 -0.14856187 -0.123674646 -0.16666102 -0.19756094 -0.18577436 -0.05397638 -0.099989794
-0.12024096 -0.087084085 -0.08273765 -0.25922564 -0.06435234 -0.015611697 -0.18910055 -0.084756106
-0.33926326 -0.16693936 -0.2191698 -0.20426702 -0.13568217 0.05896718 -0.34103778 -0.08886214
0.06490909 -0.2100365 -0.032222208 -0.19151023 -0.06627043 -0.21978737 -0.13968214 0.14535578
-0.002493632 -0.26310095 -0.27326638 -0.056143925 0.090704516 -0.18022873 -0.112417385 -0.100653574
-0.12646748 -0.06466649 -0.12885436 0.066355 -0.23136252 -0.3461685 -0.25336856 -0.15561172
-0.11283504 -0.30610168 0.052951656 -0.077972665 -0.26123944 -0.27158782 -0.05923605 -0.024565062
00000000: 5077 2ebe 27c6 a5bd fb54 63be 39d5 6cbe
00000010: f1e2 b2bd 1d3e 9ebd 6f8a 7bbe 148f 4c3c
00000020: 4f69 8bbe 1880 8abe 4e48 afbd 9129 2abe
00000030: b89b 38be 3fb0 9cbd d6a3 99bd aa4a 3f3c
00000040: 2434 08be c5dc 583d 7ab8 83be 2890 1cbe
00000050: 59fb 13be 990e 2ebe 6eab 57bd 2859 7c3d
00000060: d145 d1bd 581e 23be 5b5d 983d b099 20be
00000070: 286a c5bd b041 69bd f9da 513d 37e9 f0bc
00000080: a1dc d7bc 71ff a3bd 5240 b7bc d2c5 f0bd
00000090: 6b18 2abe e853 6dbe 6d01 403e 4dae 81be
000000a0: 4496 e1bd 5ec8 19bc 3c09 e7bd caaa 5bbe
000000b0: f36d c7bd 40a8 b1be 8b7e 5abe e77c b0bd
000000c0: d723 53be 94ff d43c 1c95 5abe 03c7 2cbe
000000d0: ae7a e5bd 9b33 dfbd 598a 3ebe 2a99 24be
000000e0: 8d4e e1bd ba4b 153d 2f04 c8bd 7f70 31be
000000f0: 6e0b 8cbe adc9 a4bd fd5c b5be 2595 c63d
00000100: 189f 35be 6987 7fbc c938 9bbe 0cce 95bd
00000110: 2b1c 65be 4189 30be 07fd ecbd 8b70 b2bd
00000120: ac54 b7be 9a20 18be 2249 fdbd 30a9 2abe
00000130: 6a4d 4abe a23b 3ebe 5616 5dbd 73c7 ccbd
00000140: e440 f6bd 2459 b2bd 5b72 a9bd 39b9 84be
00000150: 29cb 83bd 34c8 7fbc 93a3 41be 9c94 adbd
00000160: eab3 adbe 27f2 2abe 0c6e 60be 602b 51be
00000170: 44f0 0abe 9287 713d 819c aebe 5bfd b5bd
00000180: 0fef 843d cf13 57be 6ffb 03bd 421b 44be
00000190: cbb8 87bd f10f 61be d608 0fbe 25d8 143e
000001a0: 346c 23bb 2bb5 86be 92e9 8bbe 2cf7 65bd
000001b0: 4ac3 b93d e18d 38be 163b e6bd 7623 cebd
000001c0: b180 01be dd6f 84bd 66f2 03be 21e5 873d
000001d0: 4cea 6cbe ff3c b1be 86b9 81be ae58 1fbe
000001e0: 0f16 e7bd 5cb9 9cbe d6e3 583d 22b0 9fbd
000001f0: 2dc1 85be 8f0d 8bbe 80a1 72bd ab3c c9bc

encoder.5.weight f4 [128]
0.92636734 0.37110135 0.71808445 1.6158031 1.0364789 0.49732414 1.0014678 0.73435235
0.99663657 0.33666673 1.517411 1.0405867 0.8697623 1.2276183 0.9636415 0.929585
1.385265 0.90542537 0.40895572 1.0043266 1.4887215 0.8349263 1.2613196 1.4510876
0.90837455 1.3964231 0.66719687 0.4065044 0.8022537 1.1643598 1.0969568 1.1831225
0.83657044 0.7433417 0.8535447 0.7886669 1.0886836 1.0767393 1.3031082 0.77186304
0.8669913 0.4833727 0.5008664 0.9390126 1.3020544 0.7868568 1.0624071 0.9710539
0.6808132 0.7451721 0.98786104 0.8007977 0.821656 1.3877332 0.5135757 1.1968012
0.9581017 0.6588512 0.90862924 1.1569905 0.6537419 1.3248833 0.87367916 0.6011905
1.2137318 0.91955626 0.7708077 1.199236 0.81884587 0.9084387 0.7331959 0.77180403
1.3140962 1.3930291 0.9433208 0.72337794 0.41143766 0.6241195 0.9536719 0.75760984
0.7579618 0.82174814 1.5438645 0.7010643 0.5081821 1.2421242 0.9296362 1.1535342
0.9332347 0.6348535 1.251595 1.4812696 0.8250691 0.40254366 0.7732446 0.5736004
0.5015718 0.78164405 1.1110773 0.8643689 1.3867856 1.1458137 1.226921 1.6353438
1.0487381 0.43016124 0.7092696 0.8184597 0.5860817 1.0110205 0.97225505 0.868257
0.8931124 1.2385883 0.8498957 0.953597 0.6525938 0.667907 0.8200133 1.5049841
1.1719313 0.7389754 0.9493703 1.010897 0.7747403 0.90499485 0.81068176 0.7746663
00000000: 6926 6d3f ff00 be3e 62d4 373f a3d2 ce3f
00000010: 57ab 843f 45a1 fe3e 1930 803f 84fe 3b3f
00000020: 9323 7f3f 955f ac3e 863a c23f f231 853f
00000030: bea8 5e3f 9922 9d3f 36b1 763f 48f9 6d3f
00000040: 5d50 b13f f5c9 673f a562 d13e c68d 803f
00000050: 6d8e be3f bbbd 553f ec72 a13f 3dbd b93f
00000060: 3c8b 683f febd b23f 6acd 2a3f 5821 d03e
00000070: 8060 4d3f be09 953f 1569 8c3f 8f70 973f
00000080: 7b29 563f a44b 3e3f e881 5a3f 13e6 493f
00000090: fc59 8b3f 98d2 893f 40cc a63f d198 453f
000000a0: 24f3 5d3f a07c f73e c838 003f 2163 703f
000000b0: b8a9 a63f 726f 493f f5fc 873f fd96 783f
000000c0: c649 2e3f 99c3 3e3f 76e4 7c3f 1401 4d3f
000000d0: 0c58 523f 3ea1 b13f b279 033f c830 993f
000000e0: 2746 753f 79aa 283f ed9b 683f 4418 943f
000000f0: a15b 273f c795 a93f 70a9 5f3f 9fe7 193f
00000100: 905b 9b3f 0a68 6b3f a753 453f 9180 993f
00000110: e29f 513f 708f 683f bab2 3b3f f394 453f
00000120: 4e34 a83f c74e b23f 797d 713f 4c2f 393f
00000130: f5a7 d23e 4cc6 1f3f d723 743f b8f2 413f
00000140: c909 423f 165e 523f 5a9d c53f f378 333f
00000150: 3918 023f edfd 9e3f a3fc 6d3f 02a7 933f
00000160: 78e8 6e3f c285 223f 4434 a03f 3e9a bd3f
00000170: bb37 533f 341a ce3e 5cf3 453f 7ad7 123f
00000180: 0267 003f d319 483f c837 8e3f 4847 5d3f
00000190: 3182 b13f 06aa 923f bf0b 9d3f f252 d13f
000001a0: 0d3d 863f 183e dc3e b192 353f 9386 513f
000001b0: 7309 163f 1f69 813f b5e5 783f 1746 5e3f
000001c0: 04a3 643f 108a 9e3f c492 593f ef1e 743f
000001d0: 6310 273f f4fb 2a3f 64ec 513f 52a3 c03f
000001e0: d801 963f 7e2d 3d3f ef09 733f 1365 813f
000001f0: 6155 463f bead 673f d788 4f3f 8850 463f

encoder.5.bias f4 [128]
0.29804257 0.20180799 0.042178985 0.23016365 0.098447904 0.28032804 0.16174576 0.13487276
0.14233066 -0.025814066 0.097475015 0.2027564 0.14310761 0.06405704 -0.025216928 -0.019691983
0.20460026 -0.19363348 0.011887415 0.19065529 0.03753987 0.23167992 0.25166687 0.2644794
-0.01102207 0.082439415 0.3231996 0.060975745 0.20908995 0.088667504 0.32284313 0.060858462
0.2834723 0.20258309 0.13199122 -0.12738164 0.07855167 0.12270768 0.03408307 -0.39174578
0.044028595 0.16320807 0.1527482 -0.11963062 0.21983323 0.21941337 0.118202314 0.2967267
0.3104136 0.1289151 0.20225437 0.20987181 0.27881578 0.19296211 0.21532264 0.15279149
0.09618384 0.04449288 -0.21088405 0.18799762 0.20668048 0.31870136 0.17694291 0.14579102
-0.010595816 0.30269545 0.25832886 0.22933829 0.102587 0.4177454 0.27850986 0.1342445
0.23503141 0.26764497 0.16784163 0.35096177 -0.0102058705 0.058116406 -0.07138398 0.10048845
-0.05062985 0.30673623 0.37190354 -0.066212825 0.1836873 -0.03866768 0.27977243 0.16032468
0.2973702 0.30903938 -0.054313503 0.05960365 0.28176183 0.044703778 0.17603843 0.15718941
-0.029384028 -0.021801505 0.3093802 0.20835811 0.22595863 0.052886706 0.2859882 0.23163785
0.32424533 -0.15742545 0.14369814 0.13778397 0.23877624 -0.071552366 0.1616357 0.07473427
0.008559254 0.13241918 -0.005348872 -0.13505612 0.23352279 0.17004225 0.30182645 0.07077645
0.23449872 0.3275627 0.10309754 0.15820324 0.2901154 0.24277668 0.3357979 0.06529914
00000000: 0999 983e c1a6 4e3e dfc3 2c3d 05b0 6b3e
00000010: 0e9f c93d 2887 8f3e aea0 253e 161c 0a3e
00000020: 21bf 113e 0578 d3bc fba0 c73d 609f 4f3e
00000030: cd8a 123e 5630 833d bb93 cebc 1551 a1bc
00000040: bb82 513e db47 46be 6fc3 423c 243b 433e
00000050: 68c3 193d 803d 6d3e 7bda 803e d869 873e
00000060: ea95 34bc ffd5 a83d 6b7a a53e b4c1 793d
00000070: ad1b 563e 4f97 b53d b24b a53e b946 793d
00000080: 4823 913e f171 4f3e b528 073e 5570 02be
00000090: b3df a03d 2a4e fb3d b09a 0b3d e792 c8be
000000a0: 5457 343d 0420 273e 066a 1c3e e600 f5bd
000000b0: f61b 613e e6ad 603e 0e14 f23d 90ec 973e
000000c0: 88ee 9e3e 5202 043e c51b 4f3e a3e8 563e
000000d0: f1c0 8e3e dc97 453e 8a7d 5c3e 5f75 1c3e
000000e0: 08fc c43d 2b3e 363d fdf1 57be 7382 403e
000000f0: 0ca4 533e d32c a33e 8630 353e 3e4a 153e
00000100: 139a 2dbc e6fa 9a3e ae43 843e a8d7 6a3e
00000110: 2219 d23d bae2 d53e d898 8e3e 6477 093e
00000120: 13ac 703e c308 893e adde 2b3e 43b1 b33e
00000130: 8636 27bc 780b 6e3d c431 92bd e3cc cd3d
00000140: 3f61 4fbd 880c 9d3e 246a be3e 979a 87bd
00000150: 8618 3c3e 0062 1ebd 553e 8f3e 272c 243e
00000160: e840 983e 693a 9e3e d677 5ebd f522 743d
00000170: 1643 903e 4f1b 373d 6b43 343e 43f6 203e
00000180: c6b6 f0bc 1299 b2bc 1567 9e3e d45b 553e
00000190: b361 673e bb9f 583d 0c6d 923e 7932 6d3e
000001a0: 7c03 a63e 2334 21be 9b25 133e 3e17 0d3e
000001b0: c281 743e 0c8a 92bd d483 253e 480e 993d
000001c0: 1d3c 0c3c e598 073e 9745 afbb 274c 0abe
000001d0: 9920 6f3e 8e1f 2e3e ff88 9a3e 3ef3 903d
000001e0: 6f20 703e 4cb6 a73e ce24 d33d 0800 223e
000001f0: 018a 943e 739a 783e b4ed ab3e 8ebb 853d

encoder.5.running_mean f4 [128]
0.28100002 1.8201708 0.13844834 0.052145805 0.31281942 1.9277704 0.102922715 0.8359415
0.052397646 0.5359004 0.21422626 0.119469486 0.28138614 0.47615215 0.23000732 1.601765
0.24065234 1.0866418 0.482335 0.3102927 0.23332146 0.3192781 0.080034465 0.9925245
0.87692124 0.069133006 3.3514183 1.9826751 1.6263816 0.32727155 1.5747327 0.22101307
1.5243931 0.8370764 0.79022807 1.554963 0.13727511 0.21902817 1.5756017 1.2226063
0.4272749 4.3847456 0.753981 1.031756 0.24975121 0.40912232 0.34534425 0.11834163
0.52129054 1.1462642 0.078778334 0.16593038 0.4373274 0.23750372 2.3686347 0.2063347
0.20676017 2.3095098 0.4627199 0.28105497 0.14172417 0.28260058 0.022661 4.2309294
0.13139576 0.25242937 0.56939316 0.30746272 0.2372555 0.534071 1.1483219 0.6084506
0.06713789 0.16807804 0.19518313 0.92260927 0.8181918 0.12180585 0.45555356 0.4068535
0.5323435 1.069138 0.22501792 0.21046908 0.79912853 0.47701877 0.06615242 0.08487777
0.02082708 2.1868365 0.08635016 0.18137875 0.58686405 2.6987453 0.82767814 2.8074913
3.1162112 0.11255799 0.2509294 0.055885296 0.44090492 0.10202619 0.11695604 0.8403072
0.38500574 0.075274386 0.100805834 0.2720461 5.156779 0.1641312 0.43939328 0.5254811
0.3188287 0.29686028 0.21821369 1.0111825 0.64328635 0.264899 0.11271153 0.13203901
0.21050225 1.1035713 0.98523754 0.08245953 0.4466946 0.41601092 0.8879672 0.92213094
00000000: 3cdf 8f3e 5bfb e83f 67c5 0d3e d796 553d
00000010: de29 a03e 2ec1 f63f 25c9 d23d 4300 563f
00000020: ea9e 563d c530 093f 215e 5b3e 6bac f43d
00000030: d811 903e 37ca f33e 0a87 6b3e a306 cd3f
00000040: 916d 763e 1417 8b3f 9df4 f63e afde 9e3e
00000050: d2eb 6e3e 6b78 a33e 1ce9 a33d 1616 7e3f
00000060: e97d 603f 9b95 8d3d a37d 5640 4cc8 fd3f
00000070: 462d d03f 2390 a73e d790 c93f 4051 623e
00000080: 501f c33f a44a 563f 634c 4a3f 0709 c73f
00000090: d991 0c3e ec48 603e 51ad c93f 5d7e 9c3f
000000a0: c7c3 da3e d64f 8c40 e604 413f 9510 843f
000000b0: c8be 7f3e 7b78 d13e f6d0 b03e 195d f23d
000000c0: 4c73 053f c9b8 923f 8956 a13d a7e9 293e
000000d0: 61e9 df3e 2d34 733e b697 1740 6749 533e
000000e0: f0b8 533e 02cf 1340 9fe9 ec3e 70e6 8f3e
000000f0: 2420 113e 06b1 903e 90a3 b93c c663 8740
00000100: 9c8c 063e 6c3e 813e c0c3 113f c16b 9d3e
00000110: 1bf3 723e e1b8 083f 36fc 923f 6bc3 1b3f
00000120: 977f 893d a61c 2c3e 16de 473e 1f30 6c3f
00000130: 0575 513f 5875 f93d 513e e93e 1a4f d03e
00000140: aa47 083f 84d9 883f 196b 663e 3585 573e
00000150: b093 4c3f ce3b f43e ec7a 873d 65d4 ad3d
00000160: 8d9d aa3c 21f5 0b40 5ad8 b03d 5abb 393e
00000170: b93c 163f 3eb8 2c40 b7e2 533f f0ad 3340
00000180: 0170 4740 ce84 e63d d179 803e fbe7 643d
00000190: 4abe e13e 1bf3 d03d a686 ef3d 5f1e 573f
000001a0: 791f c53e 7529 9a3d 4a73 ce3d a049 8b3e
000001b0: 5504 a540 0212 283e 28f8 e03e ee85 063f
000001c0: 843d a33e 12fe 973e 6973 5f3e 6e6e 813f
000001d0: 6aae 243f d7a0 873e 4dd5 e63d 3c35 073e
000001e0: e78d 573e d341 8d3f 8738 7c3f 8be0 a83d
000001f0: 28b5 e43e 62ff d43e d251 633f c610 6c3f

encoder.5.running_var f4 [128]
0.9411021 6.7279024 0.60058105 0.19082163 1.4531462 9.932684 0.29053226 2.08995
0.15547717 1.7751405 0.68131626 0.31195587 0.7167303 1.3162776 0.60570884 5.077954
0.86686605 3.155546 3.1830027 0.7058706 0.8566608 1.0537354 0.16407926 1.423032
2.9439554 0.11617207 15.79558 15.796422 7.265346 1.078183 3.6836307 0.7656116
3.3743193 3.0699463 2.9435327 7.748133 0.38978466 0.4945173 1.9539934 5.2084694
1.3790585 30.788961 2.776625 3.422296 0.74843764 1.1600257 1.896716 0.34184605
1.6337917 3.439698 0.12231462 0.5515606 1.0196401 0.9484853 12.360513 0.8777978
0.5922275 13.855002 2.782703 0.7498881 0.3560307 0.84396243 0.041685466 20.901659
0.3795218 0.5729312 4.834206 1.1540551 0.5318614 1.5301512 4.340628 1.5929794
0.20330673 0.55390173 0.60657316 6.0276136 6.833359 0.27319267 1.3251241 1.693323
1.8209449 2.7568784 0.60148567 0.5537208 2.1709886 1.279533 0.19026433 0.18978973
0.07523769 12.6741295 0.25773114 0.6594184 2.2424076 13.002582 4.8385234 17.68318
8.509867 0.47421575 0.89432794 0.09892414 1.0045455 0.32931295 0.3522716 0.8989911
0.93341 0.17726415 0.2489033 0.7514655 30.786636 0.72207683 1.2465786 1.5293669
0.8062684 0.6735367 0.8231041 2.34066 2.7441251 0.69924223 0.36887443 0.46752614
0.6784984 4.2628503 2.5383964 0.18956685 1.5343329 1.487278 1.830767 2.3726752
00000000: 11ec 703f fa4a d740 aebf 193f bf66 433e
00000010: b200 ba3f 46ec 1e41 a5c0 943e bec1 0540
00000020: 6835 1f3e ce37 e33f be6a 2e3f aeb8 9f3e
00000030: a37b 373f c97b a83f bc0f 1b3f 997e a240
00000040: efea 5d3f 77f4 4940 51b6 4b40 f0b3 343f
00000050: 1f4e 5b3f cde0 863f 6504 283e ea25 b63f
00000060: c469 3c40 9feb ed3d b2ba 7c41 25be 7c41
00000070: b77d e840 e701 8a3f 9bc0 6b40 1fff 433f
00000080: d9f4 5740 007a 4440 d762 3c40 b5f0 f740
00000090: db91 c73e 5f31 fd3e 751c fa3f c8ab a640
000000a0: fd84 b03f cb4f f641 39b4 3140 e606 5b40
000000b0: 9c99 3f3f b97b 943f 97c7 f23f 7206 af3e
000000c0: 1620 d13f 0324 5c40 1680 fa3d 1333 0d3f
000000d0: 9183 823f efcf 723f a9c4 4541 5bb7 603f
000000e0: 399c 173f 17ae 5d41 ce17 3240 abf8 3f3f
000000f0: a849 b63e ec0d 583f 61be 2a3d 9936 a741
00000100: ae50 c23e 9eab 123f d1b1 9a40 14b8 933f
00000110: 1228 083f ffdb c33f 6de6 8a40 c0e6 cb3f
00000120: a42f 503e 81cc 0d3f 6148 1b3f 36e2 c040
00000130: e0aa da40 e9df 8b3e ab9d a93f cfbe d83f
00000140: b914 e93f b270 3040 f7fa 193f a5c0 0d3f
00000150: 7af1 0a40 bdc7 a33f a7d4 423e 3d58 423e
00000160: 3816 9a3d 3cc9 4a41 56f5 833e a5cf 283f
00000170: 9b83 0f40 930a 5041 2fd5 9a40 2777 8d41
00000180: 6a28 0841 68cc f23e adf2 643f bd98 ca3d
00000190: f294 803f b59b a83e f15c b43e 4824 663f
000001a0: f5f3 6e3f bc84 353e 82e0 7e3e 0b60 403f
000001b0: 084b f641 07da 383f e38f 9f3f 4bc2 c33f
000001c0: 9b67 4e3f e76c 2c3f f3b6 523f 60cd 1540
000001d0: bf9f 2f40 8a01 333f 1cdd bc3e 965f ef3e
000001e0: 12b2 2d3f 4569 8840 1675 2240 d01d 423e
000001f0: 0565 c43f 205f be3f 9356 ea3f e9d9 1740

decoder.0.weight f4 [64, 128, 3, 3]
-0.3734916 -0.25869682 -0.11769507 -0.18024299 -0.014772022 -0.06432068 -0.060116682 -0.083407305
-0.1483282 -0.07913827 -0.14513773 -0.14699994 -0.025286386 -0.077133566 -0.07811031 -0.035686072
-0.09868921 -0.05831407 0.0318516 0.06509426 0.11637689 0.05742302 0.075145826 0.11430837
0.06769341 0.08006307 0.14291939 -0.112531506 -0.12718984 -0.09015339 -0.14435476 -0.16233008
-0.117364876 -0.11070678 -0.12136005 -0.02794473 0.079241395 0.1628401 0.09321027 0.07389547
0.17044474 0.10220547 0.09291341 0.2081181 0.1670719 0.023188988 -0.088479415 -0.18153153
0.0046150303 -0.10513364 -0.18671964 -0.06032214 -0.09189827 -0.119577 -0.26433477 -0.34378994
-0.1568503 -0.06258037 -0.3470905 -0.11458716 0.017717525 -0.16879524 -0.10799495 -0.22175686
-0.23745175 -0.2122945 -0.2509697 -0.2779201 -0.22037007 -0.39528206 -0.34337482 -0.25490665
-0.14233753 -0.09376728 -0.106263064 0.010370011 0.009158558 -0.0891268 -0.03263781 -0.06565244
-0.06578502 -0.0024367478 0.043210268 -0.0057040695 -0.02975591 -0.03824162 -0.05197512 -0.079891056
-0.12140135 -0.093808025 -0.1441733 0.0015267815 -0.027317595 0.098074 -0.07419057 0.06863198
0.0122093195 0.076711245 0.049429 0.107155874 0.10063617 -0.078077145 0.19787066 0.13278197
0.0677202 0.15003127 0.21010856 0.17893831 -0.013936682 0.025318084 -0.087099046 -0.21786685
-0.2540588 -0.3736081 -0.27603936 -0.38829726 -0.53008896 0.0185424 -0.14027734 0.17822886
-0.010165436 -0.01679788 0.08283922 0.015855072 -0.06450406 0.09027042 0.19160624 0.31452253
0.44205922 0.11823659 0.32689005 0.3182695 0.07214786 0.1485139 0.2653179 0.17178445
0.095515355 0.121792495 0.15698834 0.09646221 0.09989501 0.16624016 0.07510513 0.10060099
0.2511522 -0.049825937 0.098364055 0.049005687 -0.14738727 -0.032802843 0.03552501 -0.14610092
0.02288005 0.2253795 0.28906417 0.13640258 0.12676787 0.23097341 0.14907365 0.13512051
0.25161284 0.13348392 -0.046512112 0.007740138 -0.0428872 -0.059716843 -0.03383987 -0.063378446
-0.07831448 -0.08525198 -0.061952975 0.35725403 0.2564621 0.13650043 0.18080203 0.13704586
0.05386551 0.08490797 0.04819346 0.04404102 -0.038610224 0.07457299 0.110342644 -0.23640233
-0.05110338 -0.07220049 0.024742626 0.08448886 0.19078653 0.037513427 0.110195115 -0.037826438
0.11322873 0.19059259 0.14717507 0.061801873 0.041777458 -0.011442492 -0.13195585 -0.5610159
-0.50825447 -0.062594496 -0.35863122 -0.37029928 -0.17653678 -0.32051346 -0.4092356 0.14562437
0.050977193 0.12589276 -0.053464763 -0.093897864 0.09511817 -0.060139716 0.01898208 0.0011779378
0.043148946 0.009174691 -0.051029414 0.03492779 0.054700498 0.057168305 -0.23314312 -0.24642195
-0.24397424 0.03948451 0.05458447 0.1931372 0.20819981 0.15902576 0.2186594 0.31149605
0.16123483 0.19275403 -0.018617133 -0.082182154 -0.06392483 -0.028463302 -0.10099986 -0.08577086
0.13218284 -0.0063489163 -0.024490597 0.0021362635 -0.0027253267 0.016547019 0.009836981 -0.01773476
0.077815115 -0.0011082988 0.03896829 0.069564596 -0.17344247 -0.19247225 -0.2608718 -0.21448119
00000000: 4a3a bfbe e973 84be 1d0a f1bd 9e91 38be
00000010: 5a06 72bc 90ba 83bd e93c 76bd 73d1 aabd
00000020: 59e3 17be 3f13 a2bd fc9e 14be 2787 16be
00000030: 6525 cfbc 34f8 9dbd 4cf8 9fbd 8f2b 12bd
00000040: 921d cabd bcda 6ebd d376 023d 2450 853d
00000050: 0257 ee3d 6734 6b3d 0ee6 993d 821a ea3d
00000060: d8a2 8a3d 1bf8 a33d 7659 123e eb76 e6bd
00000070: 0e3e 02be 57a2 b8bd bcd1 13be db39 26be
00000080: ff5c f0bd 3cba e2bd 9e8b f8bd 59ec e4bc
00000090: 5049 a23d 8ebf 263e 07e5 be3d 8256 973d
000000a0: 1189 2e3e 1a51 d13d 6349 be3d e91c 553e
000000b0: e514 2b3e d5f6 bd3c b234 b5bd 67e3 39be
000000c0: ae39 973b 4e50 d7bd 6f33 3fbe 5914 77bd
000000d0: 2935 bcbd c9e4 f4bd e356 87be 3c05 b0be
000000e0: 5d9d 20be 232a 80bd d9b5 b1be acac eabd
000000f0: 5824 913c a9d8 2cbe 752c ddbd 3b14 63be
00000100: 8d26 73be bb63 59be 1a7f 80be 8b4b 8ebe
00000110: b1a8 61be 6962 cabe d3ce afbe 2083 82be
00000120: eec0 11be 0f09 c0bd 73a0 d9bd fbe6 293c
00000130: c70d 163c 1d88 b6bd 39af 05bd c974 86bd
00000140: 4cba 86bd d8b1 1fbb 40fd 303d 34e9 babb
00000150: abc2 f3bc 3fa3 1cbd dde3 54bd ec9d a3bd
00000160: 45a1 f8bd 6c1e c0bd 2aa2 13be 491e c83a
00000170: 26c9 dfbc 05db c83d 3af1 97bd ec8e 8c3d
00000180: 9909 483c c91a 9d3d 1076 4a3d 8a74 db3d
00000190: 561a ce3d e9e6 9fbd 9b9e 4a3e fff7 073e
000001a0: e3b0 8a3d cca1 193e b326 573e 9b3b 373e
000001b0: ae56 64bc df67 cf3c fc60 b2bd 7d18 5fbe
000001c0: ff13 82be 9049 bfbe 0855 8dbe e6ce c6be
000001d0: e9b3 07bf 3be6 973c dda4 0fbe a081 363e
000001e0: ee8c 26bc b59b 89bc 9ca7 a93d 7fe2 813c
000001f0: b41a 84bd b3df b83d 6d34 443e 1909 a13e
00000200: 9655 e23e 0626 f23d 225e a73e 38f4 a23e
00000210: 42c2 933d 0714 183e bfd7 873e 43e8 2f3e
00000220: 8e9d c33d 586e f93d 8dc1 203e fb8d c53d
00000230: c195 cc3d dc3a 2a3e b8d0 993d e407 ce3d
00000240: 0597 803e 4816 4cbd 1873 c93d 30ba 483d
00000250: b0ec 16be 465c 06bd ac82 113d 7b9b 15be
00000260: f16e bb3c e2c9 663e 3800 943e 1ead 0b3e
00000270: 70cf 013e 4b84 6c3e c3a6 183e 085d 0a3e
00000280: 66d3 803e 02b0 083e 7c83 3ebd fca0 fd3b
00000290: 7daa 2fbd a699 74bd ad9b 0abd 8fcc 81bd
000002a0: 5863 a0bd 9798 aebd 67c2 7dbd 00ea b63e
000002b0: 004f 833e c5c6 0b3e 2b24 393e c055 0c3e
000002c0: 15a2 5c3d 3be4 ad3d 8166 453d 5b64 343d
000002d0: c125 1ebd b9b9 983d 53fb e13d 7413 72be
000002e0: c751 51bd dadd 93bd 0cb1 ca3c 7f08 ad3d
000002f0: 8b5d 433e aea7 193d faad e13d e5ef 1abd
00000300: 77e4 e73d b42a 433e 10b5 163e f623 7d3d
00000310: d71e 2b3d 4a79 3bbc 6f1f 07be bd9e 0fbf
00000320: f71c 02bf 8b31 80bd 839e b7be de97 bdbe
00000330: 0fc6 34be 571a a4be 5487 d1be 8e1e 153e
00000340: 76cd 503d 08ea 003e defd 5abd 864d c0bd
00000350: 51cd c23d 1055 76bd 4f80 9b3c 0965 9a3a
00000360: f3bc 303d 7151 163c 3804 51bd 7110 0f3d
00000370: a10d 603d 5029 6a3d 12bd 6ebe 0956 7cbe
00000380: 62d4 79be 82ba 213d f793 5f3d c2c5 453e
00000390: 5532 553e a6d7 223e 40e8 5f3e 697c 9f3e
000003a0: be1a 253e 5061 453e f582 98bc 1e4f a8bd
000003b0: 05eb 82bd df2b e9bc 04d9 cebd a2a8 afbd
000003c0: f05a 073e 920a d0bb 81a0 c8bc 8e00 0c3b
000003d0: 659b 32bb 9d8d 873c 4a2b 213c 7d48 91bc
000003e0: 885d 9f3d 5644 91ba 379d 1f3d e277 8e3d
000003f0: e79a 31be 7217 45be fd90 85be f5a0 5bbe

decoder.0.bias f4 [64]
0.25965077 -0.10961428 -0.5488968 -0.51346004 0.008073842 -0.07200452 0.014616966 0.12523603
-0.009293972 -0.11563875 -0.0317602 0.15514609 -0.23801488 0.13137232 0.8786658 -0.31579643
0.045077406 -0.08794737 0.12622671 0.14792489 0.21079701 -0.20240024 -0.116503954 0.073650196
0.14261745 -0.2970447 -0.23562016 -0.36402205 -0.51451796 -0.120604694 0.07090855 -0.10148545
-0.16213745 -0.31536815 -0.16905072 -0.030426364 -0.12378875 -0.40979642 -0.29273766 0.24014287
-0.3166613 -0.6014852 -0.0085658515 0.38065436 -0.26065433 -0.51449275 -0.11734613 -0.34574363
-0.14709699 0.013355705 -0.0067222896 0.05950282 -0.043124434 -0.31401575 -0.04843684 -0.38705423
0.08147229 -0.06285498 -0.51480985 -0.47324917 -0.104229435 -0.24470223 -0.5178176 -0.097710334
00000000: f2f0 843e 747d e0bd 8084 0cbf 1e72 03bf
00000010: 2648 043c 1b77 93bd 007c 6f3c e03d 003e
00000020: be45 18bc 02d4 ecbd fc16 02bd 9ede 1e3e
00000030: 2cba 73be 7786 063e 3ef0 603f 12b0 a1be
00000040: 16a3 383d c01d b4bd 9341 013e 9f79 173e
00000050: 2cdb 573e 0242 4fbe a099 eebd ead5 963d
00000060: 4f0a 123e 3e16 98be 6946 71be 1961 babe
00000070: 73b7 03bf 98ff f6bd 8038 913d 9bd7 cfbd
00000080: 5c07 26be ef77 a1be a21b 2dbe b640 f9bc
00000090: f584 fdbd d6d0 d1be b6e1 95be 03e8 753e
000000a0: 6e21 a2be effa 19bf c957 0cbc 21e5 c23e
000000b0: 7c74 85be ccb5 03bf 2b53 f0bd 4f05 b1be
000000c0: 98a0 16be e3d1 5a3c a746 dcbb 3bb9 733d
000000d0: 3fa3 30bd acc6 a0be b565 46bd f92b c6be
000000e0: f2da a63d 1dba 80bd 94ca 03bf b74d f2be
000000f0: 3e76 d5bd 3993 7abe b28f 04bf 5b1c c8bd

decoder.2.weight f4 [64]
1.019855 1.3571789 1.5257368 1.503108 1.1397799 1.3474921 1.3649142 1.3906857
1.2673905 1.3705021 1.3136872 1.110999 1.2627261 1.134571 2.091892 2.222486
1.3624568 1.3121717 1.2933797 1.1429937 1.2873393 1.2715847 1.274797 1.3447218
1.3657017 1.3043748 1.7015046 1.8511268 1.7742541 1.1334963 1.1378307 1.3066647
1.3694862 1.3170699 1.1537598 1.3789691 1.3981897 1.5729439 1.2115498 1.1522428
1.2907932 1.523306 1.3861667 2.2822094 1.145143 1.6903247 1.1731744 1.2356637
1.2638415 1.162857 1.1105682 1.4179746 1.1214389 1.3365657 1.3311634 1.4272485
1.2827628 1.3231821 1.6717783 1.5169741 1.318057 1.1400806 1.3845787 1.347582
00000000: 9c8a 823f 0ab8 ad3f 584b c33f d865 c03f
00000010: 4fe4 913f 9f7a ac3f 82b5 ae3f fd01 b23f
00000020: da39 a23f 9d6c af3f e726 a83f 3735 8e3f
00000030: 02a1 a13f 9f39 913f 8fe1 0540 363d 0e40
00000040: fc64 ae3f 3ef5 a73f 778d a53f 9e4d 923f
00000050: 89c7 a43f 4ac3 a23f 8c2c a33f d81f ac3f
00000060: 50cf ae3f c1f5 a63f e7ca d93f b9f1 ec3f
00000070: c21a e33f 6816 913f 70a4 913f ca40 a73f
00000080: 534b af3f bf95 a83f 67ae 933f 0f82 b03f
00000090: e1f7 b23f 3a56 c93f 1014 9b3f b17c 933f
000000a0: b638 a53f b1fb c23f e96d b13f b80f 1240
000000b0: 0c94 923f 8f5c d83f 942a 963f 3a2a 9e3f
000000c0: 8fc5 a13f 80d8 943f 1927 8e3f 3180 b53f
000000d0: 4f8b 8f3f 9614 ab3f 9063 aa3f 14b0 b63f
000000e0: 9231 a43f 085e a93f d5fc d53f 352c c23f
000000f0: 17b6 a83f 29ee 913f e039 b13f 917d ac3f

decoder.2.bias f4 [64]
-0.15860818 0.14386493 -0.14110184 -0.13491867 -0.12858002 0.14318798 0.13377716 0.13874666
0.14485973 0.14540277 0.14109324 -0.12597618 -0.14135367 -0.13735743 -0.27788746 -0.2138857
0.13686375 0.13995191 0.14637093 -0.122694165 -0.11851574 -0.11315748 0.14226054 0.1467844
0.1198291 -0.12248909 -0.22591531 -0.14986673 -0.17421444 -0.14044409 -0.10282868 -0.34721753
0.13676137 -0.13580051 -0.13767087 0.13442443 0.13050137 -0.13003285 -0.14667615 -0.10301387
-0.12835345 -0.14215018 0.14083454 -0.64633346 -0.13313957 -0.12535447 -0.15596241 -0.13351676
-0.1153174 -0.12159335 -0.13385671 0.15630502 -0.13146472 -0.13716353 0.1436744 -0.12792662
0.15028335 0.14559306 -0.11978852 -0.12220422 0.140071 -0.14406583 -0.12893943 0.14688471
00000000: 2f6a 22be 5451 133e 007d 10be 1f28 0abe
00000010: 7baa 03be df9f 123e e1fc 083e 9b13 0e3e
00000020: 1c56 143e 77e4 143e bf7a 103e e6ff 00be
00000030: 04bf 10be 6da7 0cbe 4447 8ebe da04 5bbe
00000040: 0326 0c3e 8e4f 0f3e 43e2 153e 1447 fbbd
00000050: 61b8 f2bd 1cbf e7bd bfac 113e a64e 163e
00000060: f668 f53d 8fdb fabd 5856 67be aa76 19be
00000070: 4565 32be 93d0 0fbe d897 d2bd 7fc6 b1be
00000080: 2c0b 0c3e 4a0f 0bbe 98f9 0cbe 8fa6 093e
00000090: 27a2 053e 5527 05be 4632 16be f0f8 d2bd
000000a0: 166f 03be d18f 11be ee36 103e 1c76 25bf
000000b0: bd55 08be ec5c 00be 9cb4 1fbe 9eb8 08be
000000c0: 872b ecbd ef05 f9bd bc11 09be 6c0e 203e
000000d0: b09e 06be 9974 0cbe 621f 133e 32ff 02be
000000e0: e1e3 193e 5916 153e af53 f5bd 3546 fabd
000000f0: c66e 0f3e fe85 13be b308 04be f268 163e

decoder.2.running_mean f4 [64]
1.6386887 1.7241914 0.47731227 0.52788395 1.1871378 2.152824 3.553436 3.871478
2.2982445 3.6043735 0.9413636 1.8884346 0.78605664 1.0375154 5.680787 0.7230914
2.8068414 3.099473 4.0251765 1.0672896 1.3398672 1.2029034 3.9849794 2.9160256
1.2844039 0.24263413 0.5543797 0.94879985 0.8645883 1.4803363 1.8482939 0.56282973
1.0555639 0.33819032 0.42364573 2.9014292 1.2738539 0.7542273 0.8328036 1.612129
0.76914024 0.49843067 0.7952252 2.8057766 1.2622631 0.16287893 1.6617982 0.70938796
0.35635656 1.2359939 1.1920462 4.1360226 1.4181669 0.32635495 4.20681 0.2230595
3.0208905 2.0867116 0.29039907 0.9158908 1.8014765 0.9035038 0.8659103 1.3448118
00000000: 8dc0 d13f 4eb2 dc3f 4662 f43e 6723 073f
00000010: 22f4 973f dec7 0940 7f6b 6340 4cc6 7740
00000020: 7016 1340 0eae 6640 34fd 703f 3ab8 f13f
00000030: 023b 493f 4ecd 843f 02c9 b540 851c 393f
00000040: 4aa3 3340 c45d 4640 3fce 8040 f29c 883f
00000050: c580 ab3f bdf8 993f e709 7f40 2aa0 3a40
00000060: 5967 a43f 1575 783e d4eb 0d3f 8ce4 723f
00000070: a955 5d3f a97b bd3f e594 ec3f 9c15 103f
00000080: b81c 873f 4827 ad3e 18e8 d83e 04b1 3940
00000090: a50d a33f 0a15 413f 9e32 553f 3e5a ce3f
000000a0: 60e6 443f 4e32 ff3e e193 4b3f d891 3340
000000b0: d691 a13f bcc9 263e ceb5 d43f 739a 353f
000000c0: 5e74 b63e 0c35 9e3f f894 983f 4c5a 8440
000000d0: 7e86 b53f ff17 a73e 309e 8640 b669 643e
000000e0: 4556 4140 af8c 0540 30af 943e d277 6a3f
000000f0: c896 e63f 064c 673f 4cac 5d3f cb22 ac3f

decoder.2.running_var f4 [64]
21.625544 8.67601 4.0676584 4.1487517 16.733028 16.60024 28.663221 24.811602
15.412255 36.88436 5.584131 14.001226 10.020615 6.123432 28.16024 9.530288
15.89619 34.236343 22.790926 8.466905 6.5577154 6.740784 47.215794 17.233265
8.359682 2.1155038 5.0790334 10.907638 7.0479164 26.822348 11.726261 3.92122
6.715174 3.285976 4.979116 32.970314 6.6613474 10.773609 12.685751 11.209967
6.4376664 4.686782 4.0940332 19.11268 21.896257 1.4592599 29.015532 9.037986
2.741654 8.443722 22.62232 27.194622 22.581263 3.1118095 35.7931 2.094373
20.906221 18.936007 2.825041 6.6280518 22.619707 12.925783 13.135262 6.0275126
00000000: 1d01 ad41 f0d0 0a41 422a 8240 93c2 8440
00000010: 3edd 8541 4bcd 8441 474e e541 297e c641
00000020: 9998 7641 9689 1342 33b1 b240 0605 6041
00000030: 7054 2041 28f3 c340 2c48 e141 0f7c 1841
00000040: cb56 7e41 04f2 0842 d153 b641 7178 0741
00000050: ced8 d140 81b4 d740 f9dc 3c42 badd 8941
00000060: 42c1 0541 6a64 0740 7187 a240 af85 2e41
00000070: 8888 e140 2b94 d641 c49e 3b41 45f5 7a40
00000080: b5e2 d640 6e4d 5240 eb54 9f40 9ae1 0342
00000090: c229 d540 b460 2c41 d6f8 4a41 065c 3341
000000a0: 5d01 ce40 1efa 9540 5202 8340 c5e6 9841
000000b0: 892b af41 07c9 ba3f cf1f e841 979b 1041
000000c0: 4277 2f40 7c19 0741 83fa b441 968e d941
000000d0: 6da6 b441 e327 4740 222c 0f42 350a 0640
000000e0: f13f a741 f17c 9741 79cd 3440 0019 d440
000000f0: 29f5 b441 02d0 4e41 082a 5241 62e1 c040
