models/model_01.pth (torch, 625452 bytes, 19 tensors)

encoder.0.weight f4 [64, 9, 3, 3]
00000000: 51d4 bf3b 19da 71bd ebd2 85bd a403 dfbb
00000010: 80fb edbd 60b1 07bd 6784 b2bd e521 abbd
00000020: 4093 b2bc de09 1a3d faf1 abbd 4d63 24bc
00000030: 32e2 e3bc c7f0 ed39 883b c13d c9b7 89bd
00000040: cd47 3c3c f79d bdbd 36fc 7cba 7e2d f1bc
00000050: ab6d b53d 51c2 8bbd 3c8e 673d 9a10 8b3d
00000060: 19ac 7b3c 8f39 6abd 656f 8fbd bb7c 5abd
00000070: b084 043d 3bc7 edbd 6091 bebd 3a6a 9ebd
00000080: 0f42 093d 7252 93bd 8baa 25bd bd4f 95bd
00000090: 6b8d eebb 7d16 01be 1a7c e43c e6eb a73c
000000a0: 08fc 00be 26c9 61bd acf9 883d 719d b9bd
000000b0: 24a6 f9bd 5cce e0bd a19f a2bd 8402 78bd
000000c0: 5268 dfbd 7093 aebc e973 0fbd 209f 02bd
000000d0: 400f 90bc c4e5 3fbd c437 bd3d c402 99bc
000000e0: efbe 163d d7ee 9cbd f30e e33c 844c 91bb
000000f0: ef6c 0b3c 28f8 fbbc 524e 863d d2ee a63c
00000100: f636 ae3d 864a 1e3d af0e da3c 96dd 9cbd
00000110: e56e 9d3d 2023 68bd 4a70 fc3d 4f6e a43d
00000120: e2c5 bc3d 9b80 823d b532 82bd f07d b03d
00000130: bf9b 00bd dba3 52bb e366 3f3b 0242 4c3d
00000140: 807b 8b3d 39e2 9abe 0d12 51be 0ab4 64be
00000150: ff96 9dbe c9c6 a4be f1d3 8bbe 88f6 9d3d
00000160: a821 41be 92e1 aabd 9583 95bd e88f b9bb
00000170: 9b14 2cbe 01ea 88be 9013 a4be 32bd b8bd
00000180: 7028 05bd f99d 3bbe 6f7e ebbd 2825 e1bd
00000190: 2d0d 3dbe f223 f2bd adaf 9abe 1aa5 bfbe
000001a0: 7b2e 88be 9596 4d3c bc83 4bbe 3317 90bd
000001b0: c680 73ba ae46 d1bc 1b71 e33c eda4 dfbd
000001c0: 63e3 b1bd 44f9 52be 9af8 15be b7f8 5a3c
000001d0: 4b2a babd bcad c63d 0b10 333e c4d2 283e
000001e0: e68d 7a3d aaa1 a63d 9435 5ebd b3c0 0e3d
000001f0: ecbd d73d 3a49 a0bc c302 103e eceb 783e
00000200: d992 893d 6fb8 003e 1690 bf3d 537a d53d
00000210: 4504 253e a10b 37bd 4986 df3d 8335 f03d
00000220: da5c 163e e9a7 073e c854 743d 0fc8 c73d
00000230: 4cd2 603e d214 433d bd75 a93d b586 77bd
00000240: 4a8d 173e 4408 143e e643 293d 882a 9c3d
00000250: 67ce b33d 933c 7fbc c368 3bbe a5a1 24be
00000260: c2fc 6ebe ffcf 0dbe 0fd2 ddbc 45e5 f5bd
00000270: 4ade 17be 67e6 82be 2b80 08be 9331 c5bd
00000280: 7c1c 4ebe 3bee 72be 2ca7 f13c 7779 3cbe
00000290: f92b 19be 0d94 01be 6547 99bd a0da b4bd
000002a0: a4e8 45b8 8ab2 d1bd 1907 6dbc 7b52 db3d
000002b0: 6db2 0dbe c3c2 2cbe 35a9 c13d bfbd d23d
000002c0: bbff 93bd 9c4b 5ebc 85dd 3d3d 0cd5 07be
000002d0: 447c af3c 09d4 34be c949 68be af71 143d
000002e0: fc31 173d 2e56 6bbc d662 8e3d 640f 823d
000002f0: 7030 87bd 1fe6 c0bd abf7 1dbe fcfb cdbd
00000300: 0217 ef3b 461d e5bd e9bc c6bd 8899 e7bd
00000310: 8e70 0cbe 69d0 d5bd f2cf 78bd 21f9 26bd
00000320: 775c e1bd df7b 863b bfe3 3ebd 97fb 18bd
00000330: 0fd6 653d d813 0bbd ac8e 21bd 8a0c e6bb
00000340: 2d24 f9bc f2ce 32be c6d4 cc3c 7a53 02bd
00000350: 1212 b0bc 88f3 66bc 7992 eabb 5456 95bd
00000360: c011 bebd 2105 57be 1b0a f3bd 9eb0 b8bd
00000370: 6453 80be 2635 9bbe 469b a33d f4c0 9dbd
00000380: be95 07bc f804 8abd 40a0 1cbe eadf 46bd
00000390: f4e1 71bc 5dcd 54be 1ba0 41be 892f 543d
000003a0: 0541 a0bd 495d 4dbe 96b1 013e 87f7 123e
000003b0: d756 4bbc 4ac6 6dbc abee 813d cef4 2dbd
000003c0: 6890 adbc 158a ee3d d154 813c 1bb1 a8bd
000003d0: ab15 25be c580 f13d 4cc2 f53d c682 81be
000003e0: 1be2 c2ba 52a3 b13d 14c8 dbbd 2484 83bd
000003f0: e885 953c b74f c03c 2f3d 053e fc33 183e
0.0058541675 -0.059045885 -0.0653437 -0.006805854 -0.116202354 -0.033128142 -0.0871666 -0.08356074
-0.02179873 0.037607066 -0.08395763 -0.010033441 -0.02781782 0.00045383556 0.09435183 -0.06724507
0.011491728 -0.09258645 -0.00096506195 -0.029440638 0.08858808 -0.06824172 0.05653213 0.06790276
0.0153608555 -0.0571838 -0.07003669 -0.05334161 0.032353103 -0.11610266 -0.09305072 -0.07735105
0.033510264 -0.071934596 -0.040445846 -0.072905995 -0.007280042 -0.12606235 0.027891207 0.020498227
-0.12596142 -0.05512347 0.06688246 -0.09063233 -0.12189892 -0.1097686 -0.07940603 -0.060549274
-0.109085694 -0.021310538 -0.03502265 -0.031890035 -0.017585397 -0.04684998 0.09239152 -0.018678077
0.036803182 -0.076627426 0.02771709 -0.00443417 0.0085098585 -0.030757979 0.06557907 0.02037755
0.08506577 0.03864529 0.02661833 -0.07659452 0.07687167 -0.056674123 0.12326105 0.08028852
0.09217431 0.06372186 -0.06357328 0.08617771 -0.03139853 -0.0032141123 0.0029205612 0.049867637
0.06810665 -0.3025072 -0.20417042 -0.22334304 -0.30779263 -0.3218291 -0.27310136 0.07713038
-0.18860495 -0.083438054 -0.07300488 -0.005662907 -0.16804735 -0.2674103 -0.32046175 -0.09020461
-0.032509267 -0.1832198 -0.11498725 -0.10993415 -0.18462057 -0.11823262 -0.30212155 -0.3743065
-0.26597962 0.012548109 -0.19874471 -0.07035675 -0.0009288903 -0.025546398 0.027763894 -0.10920129
-0.08685949 -0.206029 -0.14645615 0.013364962 -0.09090098 0.09701106 0.17486589 0.1648665
0.06117048 0.08136304 -0.054250315 0.03485174 0.105342716 -0.019566167 0.14063554 0.24308747
0.06717462 0.12570356 0.09353654 0.10423722 0.1611491 -0.044688825 0.10914285 0.117289566
0.14683858 0.13247646 0.059651166 0.09754955 0.21955222 0.047627278 0.0827441 -0.0604312
0.14799991 0.14456278 0.04132452 0.076253 0.087796025 -0.015578407 -0.18301682 -0.16077287
-0.23338607 -0.13848875 -0.027077703 -0.1200662 -0.1483089 -0.25566408 -0.13330142 -0.09628596
-0.20128053 -0.2372369 0.02949866 -0.1840571 -0.1495818 -0.12654133 -0.074843206 -0.08830762
-4.7185124e-05 -0.10239132 -0.014467024 0.10709091 -0.13837595 -0.1687117 0.09456102 0.102900974
-0.07226511 -0.013567831 0.046353836 -0.13264865 0.02142156 -0.1765901 -0.22684397 0.03624123
0.036912903 -0.014363809 0.06952445 0.06350592 -0.066010356 -0.09418892 -0.15426509 -0.10057828
0.007296444 -0.11187224 -0.097040005 -0.11308581 -0.13714811 -0.10440142 -0.060745187 -0.04076493
-0.110039644 0.004104122 -0.046603914 -0.03734931 0.056112345 -0.03395447 -0.039442703 -0.0070205377
-0.030412758 -0.17461756 0.025003802 -0.03181789 -0.021492992 -0.014096148 -0.007158574 -0.072918564
-0.09280729 -0.2099805 -0.11867162 -0.09018062 -0.25063622 -0.30313987 0.079886004 -0.077028185
-0.008275447 -0.06739229 -0.15295506 -0.048553385 -0.014763344 -0.20781465 -0.18908732 0.051803146
-0.078249015 -0.20055117 0.126654 0.14352237 -0.012410841 -0.014512608 0.063443504 -0.042469792
-0.021187022 0.11647431 0.015787514 -0.08236905 -0.16121547 0.11792139 0.1199995 -0.25295085
-0.001486841 0.08673729 -0.10731521 -0.06421688 0.018252328 0.023475511 0.13011621 0.1486358

encoder.0.bias f4 [64]
00000000: 2c1a 82bd 680b e33d fcd1 c7bc 0589 6f3d
00000010: 71d3 14bd 8403 6f3e 6af5 a3bd fef1 843e
00000020: 0a8f 6e3e 289d a5bc 70d4 a4bc 9174 a53a
00000030: 68c4 ba3b 276e f3bc 2653 853e 1f20 acbd
00000040: 0c2e 34bb d89d c6bd 5059 46bd c5e2 853d
00000050: cf6c 6fbe 990f 013d 1522 00bd a181 23be
00000060: 9d2f 82bd d337 0cbc c878 ddbd d059 e1bd
00000070: 5656 0f3d 5fe7 ca3d db0a e3bd 47fa d53d
00000080: 3a51 d7bc ca80 5e3d 89b4 043e 8f1a debc
00000090: 8ce7 84bd c443 b13d ca8a 923e 3ddb b93d
000000a0: 2aec da3d 69d4 98bd d35a 963e 277d 0f3e
000000b0: f42e 06be 43f4 6e3e 4eda 83bd 7d21 ac3e
000000c0: 21e6 ddbd 76ff 50bd cd39 ccbd 4000 36bd
000000d0: fd46 03be cbd0 d23d 03f0 2fbc 59cc 04be
000000e0: e7e8 d03e 32e5 d0bd 7273 8dbd 6a65 0c3e
000000f0: fdc9 ed3d b7bc a13d 85cf 73be 92d3 87bd
-0.06352648 0.1108616 -0.02439212 0.05848028 -0.03633446 0.23341185 -0.080057934 0.25965875
0.23296753 -0.02021654 -0.02012083 0.001262324 0.005699683 -0.02971561 0.2604 -0.08404564
-0.0027493266 -0.09698075 -0.04842502 0.065373935 -0.23381351 0.031509016 -0.031282503 -0.15967418
-0.06356738 -0.008558231 -0.10814053 -0.110034585 0.034994446 0.09907412 -0.11086055 0.10448127
-0.026283849 0.05432204 0.12959494 -0.027112273 -0.064894766 0.086555034 0.28621513 0.090750195
0.10689576 -0.07462389 0.29366168 0.14012586 -0.13103849 0.23335366 -0.06438123 0.336193
-0.10834909 -0.051024877 -0.09971962 -0.044433832 -0.12820049 0.1029373 -0.010738376 -0.12968577
0.4080269 -0.101999655 -0.06906785 0.13710561 0.11610792 0.078973226 -0.23809631 -0.06632151

encoder.2.weight f4 [64]
00000000: ab3f 7d3f 410b 2f3f 6bf8 7d3e b640 6a3f
00000010: 9347 803f 8939 163f cd6a 313f bfbb 8a3f
00000020: 3b19 b93e 91fc 813f 6cdb 703f 5b64 1c3e
00000030: d6c1 f63e f27f 803f 0822 bf3f 2d35 663f
00000040: 9d57 7b3f 8465 7c3f 2e7b 7c3f 6c39 eb3e
00000050: 696a 0e3f c188 b03e 671c 6b3f d01e 7a3f
00000060: c9ba 7d3f dec2 593f 5ebd 6d3f 1978 7e3f
00000070: 0f8e 473f 4307 233f fc01 6e3f 7c8d 8c3f
00000080: e2ee 413f e375 d13e 4d86 363d 4f02 793f
00000090: 4871 843f 27fd cd3f 19b1 aa3f 9304 143f
000000a0: 624f ff3e c8e7 7e3f 4ba5 833f 24fc 5b3f
000000b0: fb47 573f 8fbf 413f 2709 763f ec39 673f
000000c0: b9c5 7b3f 07d7 493f cb55 453f eb0f 883f
000000d0: 7d61 9d3f a1a2 363f be2c 803f d2bd 7c3f
000000e0: dc4c 6c3f 6dde 773f 01bd 773f 39f2 4c3f
000000f0: c932 033f 180f e53f 9826 703f 295f 7d3f
0.98925275 0.6837655 0.24801795 0.9150499 1.0021843 0.5868154 0.6930359 1.0838546
0.36152062 1.0155202 0.9408481 0.15272658 0.4819476 1.0039046 1.493226 0.8992489
0.9818056 0.985924 0.9862546 0.45942247 0.5563112 0.34479335 0.91840214 0.97703266
0.99113137 0.8506297 0.92867076 0.99402004 0.7795114 0.63682956 0.9297178 1.0980678
0.7575513 0.40910253 0.044561673 0.9726915 1.0347071 1.6092881 1.3335296 0.5781948
0.49865252 0.9957242 1.0284818 0.8593161 0.8409421 0.7568292 0.96107715 0.90322757
0.98348576 0.7884373 0.77084035 1.0629858 1.2295376 0.713419 1.0013654 0.9872714
0.9230478 0.9682377 0.9677277 0.800571 0.51249367 1.7895231 0.9380889 0.9897333

encoder.2.bias f4 [64]
00000000: da2f 1f3c b68c 623e 006b 02bb 8efa c93d
00000010: c729 f53b 1a19 243e e9cd 713c af05 b33e
00000020: 5859 eb3d 2504 72ba ba5a 2c3a 4c9e ad3d
00000030: 6e30 873e 6b76 3b3e 573c 353e 5987 203c
00000040: f2fc 7b3b be5d aa3b 4d39 1fbd a873 053e
00000050: 25c8 7c3c 6c1f 543d cd1c 28bc 88a2 c73b
00000060: 9832 aaba 2412 923b b262 413b 443e 4cbe
00000070: 0136 083e ad00 ca3d e70c 233c 9f7f a3bd
00000080: df72 c03b b64f 2d3e 930c 893c 3a00 aebb
00000090: 8a9d a5bc 1f34 17bd b52c 333d 6c9d a23d
000000a0: 73ae 043e ff11 213b eab5 853d 8539 eb3d
000000b0: 9bb8 28bd 3a34 313e 9666 6cbb ab46 5f3e
000000c0: e1f0 4d3e 441c 4f3b 4789 e4bb 1b58 b1bb
000000d0: 3a1d 123e 4af0 d8bd ef9a 293e 2c6e 533e
000000e0: 1eb7 bf3e 56c2 4bbe 2b59 503e a7f6 f03d
000000f0: e074 e23d eaa8 f03c 7ee0 7e3e 7ccc 6138
0.009715999 0.2212399 -0.0019900203 0.09862243 0.007481787 0.160252 0.014758565 0.34965274
0.1149165 -0.0009232185 0.00065747986 0.08477458 0.26404136 0.18306892 0.17698799 0.009797894
0.0038450328 0.005199163 -0.038873006 0.130324 0.015428578 0.05178778 -0.010260773 0.0060923733
-0.0012985049 0.004457729 0.002950829 -0.19945627 0.13301851 0.0986341 0.009951807 -0.07983326
0.0058730687 0.16924939 0.016729629 -0.0053100856 -0.020216722 -0.03691494 0.043743808 0.07940182
0.12957172 0.0024577377 0.06528838 0.1148558 -0.04119168 0.17305079 -0.0036071888 0.21804301
0.2011142 0.003160254 -0.0069743725 -0.0054121143 0.14268962 -0.105927065 0.16563009 0.20647496
0.37444395 -0.19898352 0.20346515 0.11765795 0.110574484 0.02937742 0.24890324 5.383462e-05

encoder.2.running_mean f4 [64]
00000000: 0400 0000 5b5a ad3c 0400 0000 6ba5 453e
00000010: 0400 0000 9258 6c3c 0400 0000 23d6 c63c
00000020: 9044 6f3c b03e 822e 0400 0000 7a8f 973f
00000030: 83ab 713e 0400 0000 afe4 813e 0400 0000
00000040: 0400 0000 0400 0000 0400 0000 d53e f73e
00000050: 0400 0000 a737 9e3a 0400 0000 0400 0000
00000060: 0400 0000 0400 0000 0400 0000 0400 0000
00000070: 5d83 b53c 361b 7d3e 0400 0000 96b1 f93e
00000080: 0400 0000 d26b aa3c 8bde b23e 0400 0000
00000090: 0400 0000 6ef0 0e3e 5e44 883e 1a08 0e3b
000000a0: 2927 f73b 0400 0000 7ae3 e13e e80f 473f
000000b0: fc8d 903c 93c4 ec3e 0400 0000 5cd8 853e
000000c0: 0400 0000 e87d 0c39 0400 0000 0400 0000
000000d0: dbd2 db39 c043 d93e 0400 0000 0400 0000
000000e0: 03b2 983d 0400 0000 0400 0000 35ae f63e
000000f0: 14fa b73b 586e 183e bc9f 273f 0400 0000
6e-45 0.021161249 6e-45 0.19301383 6e-45 0.014425414 6e-45 0.02427203
0.014603749 5.922851e-11 6e-45 1.184066 0.23600583 6e-45 0.25369784 6e-45
6e-45 6e-45 6e-45 0.48290125 6e-45 0.0012071029 6e-45 6e-45
6e-45 6e-45 6e-45 6e-45 0.022157365 0.24717411 6e-45 0.487683
6e-45 0.020803366 0.34935412 6e-45 6e-45 0.13958904 0.2661466 0.002167231
0.00754251 6e-45 0.44118863 0.77758646 0.017645828 0.46243724 6e-45 0.26141632
6e-45 0.00013398344 6e-45 6e-45 0.00041928035 0.42434502 6e-45 6e-45
0.07455828 6e-45 6e-45 0.48179784 0.0056145284 0.14885843 0.6547811 6e-45

encoder.2.running_var f4 [64]
00000000: 0400 0000 beb4 923b 0400 0000 9126 3c3c
00000010: 0400 0000 6757 0a3b 0400 0000 efba cd3b
00000020: fd0e 0f3b 9891 902c 0400 0000 2cba d43e
00000030: 36fc c23c 0400 0000 95d3 663b 0400 0000
00000040: 0400 0000 0400 0000 0400 0000 0234 b03d
00000050: 0400 0000 556d 1438 0400 0000 0400 0000
00000060: 0400 0000 0400 0000 0400 0000 0400 0000
00000070: 692b 083c 1f2b 2e3c 0400 0000 9708 e13d
00000080: 0400 0000 d7c3 023b 27f7 f73c 0400 0000
00000090: 0400 0000 1815 f33a 66b7 3c3b 35dd 2739
000000a0: 6190 3f3a 0400 0000 111c 6d3c b0ff ee3d
000000b0: fbbf 5e3c 19c3 b93c 0400 0000 0f49 693c
000000c0: 0400 0000 eaa6 9637 0400 0000 0400 0000
000000d0: 5043 5338 d8b2 553d 0400 0000 0400 0000
000000e0: 3096 673c 0400 0000 0400 0000 054b 583d
000000f0: 1173 143a e03d 403b a12a 613e 0400 0000
6e-45 0.0044771126 6e-45 0.011483804 6e-45 0.0021109225 6e-45 0.0062783877
0.0021829002 4.1088903e-12 6e-45 0.41548288 0.023801904 6e-45 0.0035221328 6e-45
6e-45 6e-45 6e-45 0.0860367 6e-45 3.5387773e-05 6e-45 6e-45
6e-45 6e-45 6e-45 6e-45 0.008311131 0.010630398 6e-45 0.109879665
6e-45 0.0019953155 0.030269219 6e-45 6e-45 0.0018545715 0.0028795837 0.00016008767
0.0007307586 6e-45 0.014472024 0.11669862 0.013595576 0.022676038 6e-45 0.01423861
6e-45 1.7959119e-05 6e-45 6e-45 5.036901e-05 0.05217251 6e-45 6e-45
0.014134929 6e-45 6e-45 0.05280592 0.0005662898 0.0029333755 0.21988918 6e-45

encoder.3.weight f4 [128, 64, 3, 3]
00000000: 739f 7e3c 5850 4ebc 5342 9ebc 1a0b 253d
00000010: 7351 36bd aa0a 2ebd 05b0 b3ba 0cdf cdbc
00000020: 816c cd3c 6687 e7bd 9532 74be d34c 38bc
00000030: 569c 1cbe 0ad9 27be a474 babd 41c4 0e3e
00000040: d5b5 f43d a915 653d a55d 48bd f7e4 bfbd
00000050: 7413 183c c540 3cbd 15aa acbc 5089 603c
00000060: f257 c6bc 08d3 46bc 82cd e53c 1fc1 52be
00000070: 6eb6 bfbd e37a 08bd e2d1 2abe 7a7a 23be
00000080: dc20 13be 6b85 00bd b93b 2f3d 952c 553d
00000090: 6818 1a3d ad5a 3fbd 1c5b 34bc 94bc 873c
000000a0: fda8 f6bc 0214 3bbc 3bd3 abbc bafb 7abd
000000b0: 1680 4e3a 25ae a73d ea5f 14bd 85de 1abe
000000c0: f06d c2bd 81a3 99bc 60f0 d13d 4b3c 41be
000000d0: b7d5 c8bc ebf7 61be d176 1cbd 9411 31bd
000000e0: 7996 873a 7149 f3bc 939d bdbd b496 82bd
000000f0: a00f 593d 4172 05bd 5fb9 73bc cc9f b3be
00000100: 394f d7be 4fd9 f7be e9de 61be 9ade 84be
00000110: 06dc 2cbe ed4b 60be 45bf 65be d918 0ebe
00000120: 9c2d cc3c 50e7 f9bd b980 49bd b1e4 703c
00000130: f702 a63d 5d66 f33d 74f8 003e ecb2 093e
00000140: f328 303e 12ce f33d 482e 97bb c755 903d
00000150: 76af 8d3d 1752 ee3c 8cce aa3d e4f7 4e3d
00000160: 6969 d93d b3f8 e83d e8dd 783c 78d4 cc3c
00000170: 500c 32bc b72a 163c 9014 9e3d 6e52 c03c
00000180: 03ed 1dbd 7089 833b de2f ceb9 6552 17be
00000190: 2ce8 e4bd 77d0 24be 8696 7dbd 3196 bbbd
000001a0: c216 9cbd e060 cebd fd27 ffbd 98d4 c8bd
000001b0: 0776 8ebe 1834 b5be 74dd 8cbe da85 4fbe
000001c0: c359 42be 231f 43be 9ec7 10be 33eb 85be
000001d0: aa40 0abe 8a42 ecbd b518 f6bd c496 10be
000001e0: 0e08 13be 8665 94bd ebb5 14be dc75 09be
000001f0: 7eff 69bd 2af4 9ebd e08b 5e3d 2d4e b6be
00000200: d427 083d 4b69 113e 6356 23be 0343 bc3d
00000210: d31c 8fbe 0aba f8bd 4865 413e 9cf7 91bd
00000220: 8a54 d1bd ae5e cabc b50c 92bd a393 81bc
00000230: b666 9fbc be04 93bd 6f6a 2dbd f524 5ebc
00000240: 7bd3 afbd cc9a 18bd 9416 73bd 48ca 47bd
00000250: a9b6 c1bd 6f6a 8ebd 74d3 3abd 8449 9fbd
00000260: 4350 a0bd 2a14 02be 15fe a4bd be94 febd
00000270: bd13 b4bd fa56 c2bd f808 e3bd 8ca8 70bd
00000280: 021d 82bd b50c 53bd a04a 713d 5975 ef3d
00000290: 05c2 1e3e 074e 5e3d 449e 2d3d c5bb e83d
000002a0: 2885 923c 5a12 d83d a3ca e73d 0947 35be
000002b0: 5917 05be 65c1 34be b31d 73be 35f8 8fbd
000002c0: c498 2ebd 5c0a aa3d 0977 85bd ba12 99bd
000002d0: 5a31 8abd bdb5 15be e059 e1bd a5d6 babd
000002e0: e5a4 efbd da70 d2bd 771c babc d4b3 1bbe
000002f0: f63f 9bbd 7206 9a3d 5aa5 a43d 6acc ad3d
00000300: 3bf9 b23d eb7d 023d 7a02 6f3c f6ce 913d
00000310: 82fe 483d 28ef 903d beac e13c 361c a03d
00000320: 8ae8 913d 4d24 873d f6ae e03b 68d9 c93c
00000330: 4547 063d 1fb1 debc cfbd 2b3d 5031 75bc
00000340: 2bcb bfbc 263a b6bc 11d2 413d e92c 64bc
00000350: 0d91 2e3d 065b cfbd a7bd 12bd 8c83 a5bd
00000360: 91f8 51bd 5f56 f0bb d144 e23c 2503 91bc
00000370: 714e 46bd dc8d 83bc d966 8dbd 8c29 a8bd
00000380: e1a1 a83c ca7c e53b e90f 0c3e 5e3e 593d
00000390: c059 6e3b 8286 973d 55ab 6c3d 5be8 7f3c
000003a0: 9b50 243d e306 143d 6f52 683d 77f6 843d
000003b0: 68b6 1d3d a475 723b ac53 e8bb cdff 273d
000003c0: 0729 a4bc 7ca4 4e3c 111a f73d b810 033e
000003d0: 7d81 3b3e b972 133e 6bad 9b3d d9cf 383d
000003e0: 0652 cd3d bdb7 aa3d 8df3 473d b220 a53d
000003f0: 9180 403e de8b a43c eec0 4fbe 36bf 4cbd
0.015540945 -0.012592398 -0.019318735 0.04029379 -0.04451127 -0.04249064 -0.0013709074 -0.025130771
0.025076153 -0.11305122 -0.2384742 -0.011248785 -0.15294012 -0.16391388 -0.09104279 0.13942052
0.11948744 0.05592886 -0.04891743 -0.093698435 0.009281982 -0.045960207 -0.021077195 0.013704613
-0.024211857 -0.012135275 0.028052095 -0.20581482 -0.093609676 -0.03332032 -0.16681626 -0.1596469
-0.14368004 -0.031377237 0.042781565 0.05204447 0.037620932 -0.046717335 -0.01100805 0.016569413
-0.030109877 -0.011418344 -0.020974746 -0.06127522 0.00078773627 0.08187512 -0.036224283 -0.15123947
-0.09493625 -0.018754723 0.10250926 -0.18870656 -0.02451597 -0.2206723 -0.03819925 -0.043229654
0.0010344527 -0.029698106 -0.092585705 -0.063764006 0.052993417 -0.032579664 -0.014875739 -0.35082853
-0.4205263 -0.4840798 -0.2205769 -0.25951082 -0.16880807 -0.21903963 -0.22436245 -0.13876666
0.024924092 -0.122023225 -0.049195025 0.014702962 0.08106034 0.118847586 0.12594777 0.1344716
0.17203121 0.11904539 -0.0046136715 0.07047611 0.06918232 0.029091878 0.08340177 0.050529376
0.106158085 0.113755606 0.015189625 0.025003657 -0.010867193 0.009165457 0.07718766 0.023476806
-0.03855611 0.0040141866 -0.00039327046 -0.14777525 -0.11177096 -0.16095148 -0.06191113 -0.09159506
-0.07621528 -0.10077071 -0.12458799 -0.09806174 -0.27824423 -0.35391307 -0.27512705 -0.20265904
-0.18979554 -0.19054846 -0.14138648 -0.26156005 -0.1350123 -0.11536129 -0.12016431 -0.14120013
-0.14358541 -0.072459266 -0.14522521 -0.13423866 -0.057128422 -0.07761414 0.054332614 -0.35606518
0.033241108 0.14200322 -0.15950923 0.09192469 -0.2795168 -0.12144859 0.18886292 -0.07127306
-0.10221203 -0.02470335 -0.0713133 -0.015817469 -0.019458156 -0.07178639 -0.04233783 -0.013558616
-0.085852586 -0.037257 -0.059347704 -0.048776895 -0.09458668 -0.06953894 -0.045611814 -0.07777694
-0.07827809 -0.12703004 -0.08056275 -0.12430714 -0.08792827 -0.09489246 -0.11085695 -0.05875449
-0.06353189 -0.05152579 0.05890906 0.11692304 0.155037 0.05427363 0.042387262 0.11363939
0.01788576 0.10550375 0.11317947 -0.17702879 -0.12997188 -0.17651899 -0.23741798 -0.070297636
-0.042626157 0.08302757 -0.06516845 -0.07474275 -0.06747694 -0.14620109 -0.110034704 -0.091229714
-0.11701373 -0.10275431 -0.022718651 -0.15205318 -0.07580559 0.075207606 0.08039351 0.084862545
0.08738943 0.031858366 0.014587993 0.07119553 0.049070843 0.070768654 0.02754819 0.07817881
0.071244314 0.06598721 0.0068567945 0.0246398 0.03278281 -0.027184067 0.041929062 -0.01496537
-0.023412308 -0.022244524 0.047319476 -0.013926723 0.0426188 -0.10124783 -0.035825398 -0.08081731
-0.051262442 -0.007334515 0.027620705 -0.017701695 -0.04841465 -0.016058855 -0.06904382 -0.082110494
0.020585002 0.0070034014 0.13677944 0.053037994 0.0036369413 0.07398702 0.057780582 0.015619363
0.040115934 0.03613938 0.05671924 0.06492322 0.038504034 0.0036996389 -0.0070900526 0.041015435
-0.020039095 0.012612458 0.12065519 0.12799346 0.18311115 0.14399232 0.07601436 0.045120094
0.1002541 0.083358265 0.048816252 0.08062877 0.18799044 0.020086225 -0.2028844 -0.04998704

encoder.3.bias f4 [128]
00000000: fcdf 98bd 1480 39bc 79c9 37bd bb6a 2ebd
00000010: a5bf 58be 8a92 8abd 8c19 3cbe c0ca b7bd
00000020: b8a7 a6be ba73 5bbe d136 60be 8a9a c0bd
00000030: 0519 0fbe 95ad 91bc ae0f 74be 9968 893c
00000040: 1f7f 3dbd e288 18bd a3f4 90be 02ff a9bd
00000050: 1b6a f6bd 05eb 22be b9a5 e9bc d3fc 4ebe
00000060: 1b23 6bbe b37b 9ebd 3457 c0bd 8010 5abe
00000070: 5311 e9bd 4c51 8cbd ae34 2bbe 94dd 1dbe
00000080: 360b 0dbe c357 923c ae24 3fbe 3b1b a4bd
00000090: 7a62 a6bd d486 fbbd 4a82 0cbe 6633 46bd
000000a0: a8a7 9dbe fa04 e1bd 5eee 1dbe 0eda 80be
000000b0: 860a 76bd 5823 55be 2416 95bd 3250 9dbe
000000c0: 9e44 97bd ef5e 63be 26f3 d1bc c5ca 0dbd
000000d0: bd3f 4ebe 74a0 35be 5a8c 2ebe 893f 05be
000000e0: 37dc f5bd 5b70 85bd 3f4b 113e f6ee 8bbe
000000f0: beb1 f6bd d811 08bd 3cb6 f2bd c599 b6bd
00000100: 4d4b 04be 3132 5bbe 5712 50be d6ae a2bd
00000110: 938f 8fbe 517e 2bbe a8cb 71be 2c8d 2dbe
00000120: 02be d2bd 04b4 66be a4f2 f0bd 6b1e 9e3b
00000130: 85f4 e9bd ec8b b7be c23d 8dbe e4e9 a9bd
00000140: dd86 533b 6f7b 1ebe e6cd 24be 1607 44be
00000150: 4e88 e1bc d75f c6bd d5d3 a1bd d785 c2be
00000160: ad75 b9be 688a fa3b 153a 10be d247 d1bd
00000170: 9d21 e63d c192 343d c57d de3d 0d89 6dbe
00000180: 1e89 24be fcb3 12be a1e8 5d3d 22cc c6bd
00000190: b3b2 babe e24d b93d b5aa 3ebe 87dc 15be
000001a0: fc7f d8bd 79da f53d 32a0 43be 6700 6dbe
000001b0: 6ad9 debd 694f f5bd dbea 36be 43f4 33bc
000001c0: fa3f 9abe fda0 81bd 43f5 e23d 6587 4b3c
000001d0: 6db5 b53d 99ff e33c 365a 02be a780 8dbe
000001e0: 7deb 41be af35 3ebe 8291 bbbd 3424 a4bd
000001f0: 7c52 40be 97d8 33be 93d0 8bbd f742 b8bd
-0.07464597 -0.01132204 -0.044869874 -0.042582255 -0.21166857 -0.06766231 -0.1836912 -0.08974218
-0.32549834 -0.21430865 -0.21895911 -0.09404476 -0.13974388 -0.017782966 -0.23834106 0.016773509
-0.04626381 -0.037239917 -0.28311643 -0.08300592 -0.12031957 -0.15909965 -0.028521406 -0.20213632
-0.2296261 -0.077384375 -0.09391633 -0.21295357 -0.113802575 -0.06851444 -0.16719314 -0.15416557
-0.13773808 0.017864114 -0.18666336 -0.08013006 -0.08124252 -0.12281576 -0.13721576 -0.04838886
-0.30791974 -0.10987277 -0.15422961 -0.25166363 -0.06006863 -0.20814264 -0.072796136 -0.30725247
-0.073861346 -0.22204183 -0.025628638 -0.034617204 -0.20141502 -0.1773699 -0.17045727 -0.13012518
-0.12004893 -0.06515571 0.1418886 -0.2733075 -0.120456204 -0.033220142 -0.11851165 -0.08916048
-0.1291935 -0.21405865 -0.20319496 -0.079435036 -0.28039226 -0.16747405 -0.23612845 -0.16948384
-0.10290147 -0.22529608 -0.1176503 0.0048254034 -0.114235915 -0.3584894 -0.2758618 -0.08296564
0.003227643 -0.15476774 -0.16094169 -0.19143328 -0.027530815 -0.09686249 -0.07901732 -0.37992737
-0.36222592 0.007645894 -0.14084657 -0.10218777 0.1123688 0.044085268 0.108638324 -0.23196812
-0.16067931 -0.14326471 0.05417693 -0.09706904 -0.36464462 0.09048058 -0.18619807 -0.14634906
-0.10571286 0.12004561 -0.19104078 -0.23144685 -0.10881312 -0.11978037 -0.17863028 -0.0109835295
-0.30126935 -0.06329534 0.11081936 0.012422417 0.08872495 0.02783184 -0.12729725 -0.27637216
-0.18937488 -0.18575166 -0.09158613 -0.08014718 -0.18781465 -0.17563091 -0.06826892 -0.089971475

encoder.5.weight f4 [128]
00000000: 5a8e 803f e042 0b3f 4184 b33f d5af 933f
00000010: eb8d 503f 8478 463f f15a 433f 2eab 4e3f
00000020: 16d9 853f 537e ec3e 290c 113f c5b0 9c3f
00000030: f7e6 743f 05ef 303f 4eaf 8a3f c84d 2f3f
00000040: 0b8d 093f a654 643f ca4f 2a3f 2111 a53f
00000050: c01b 3e3f 4733 5f3f a479 633f 01b8 273f
00000060: 960f 2b3f a857 483f 7984 573f ded9 9a3f
00000070: 1fda 543f 99e2 2c3f 26c8 933f 64ac 713f
00000080: 1d9a b13f b9e4 723f cd4a 663f 5f93 433f
00000090: e619 a83f 55f1 b93f 3774 883f 4938 343f
000000a0: 3280 483f bc7e 413f fefe 2b3f a8d9 763f
000000b0: 53c7 9a3f edb8 2d3f b824 613f 62b5 893f
000000c0: 38c7 8f3f 4a2f 843f 43a5 213f 8cb6 8c3f
000000d0: 1813 593f adc0 133f 9cb6 6c3f 3786 4c3f
000000e0: 98a8 3e3f c21b 823f be79 d83f bfce cc3f
000000f0: 651f c63f a652 433f 88e1 853f 6b8d 643f
00000100: a1a0 8f3f c1ba be3f 9f19 8b3f 9974 383f
00000110: 25e2 213f 6573 493f 2749 673f 0c5d 643f
00000120: 5feb 933f f7f0 c53e 00f0 873f 11ff 1c3f
00000130: f76a 463f 54a1 8b3f ba48 2d3f d942 b63f
00000140: 29af 6c3f adea c03f 1449 c53f 9e56 433f
00000150: 33a3 633f 2f16 613f 3e12 b03f f89c 383f
00000160: 7ddb 3a3f b977 b83f 998a 4c3f 03f3 943f
00000170: f59d 0d3f 08a3 123f 9f9d e43f 114a 123f
00000180: 1786 7b3f 5067 3c3f 5d01 a23f 4af3 573f
00000190: 81ef 4f3f f72a 1a3f 01a4 463f 200c 5c3f
000001a0: 1764 613f 0014 5e3f b38a ab3f 1e86 cb3f
000001b0: 2c34 ea3e 4ae9 8f3f 2bee 513f a32a a43f
000001c0: 6b30 503f eace 2d3f 5e4f 283f 0ccf 763f
000001d0: 055b a73f 0721 3b3f 2788 ee3e e9ce 1f3f
000001e0: 3b75 223f d697 8e3f f525 5c3f 7d00 ba3f
000001f0: b7cb 493f f483 5e3f 7c6f 793f 981d 993f
1.0043442 0.5439892 1.4024736 1.1538035 0.8146655 0.7752764 0.7631064 0.8072995
1.0456874 0.46190128 0.5665918 1.2241446 0.95664924 0.69114715 1.0834749 0.6847806
0.5373084 0.89191663 0.66528 1.2895852 0.74261093 0.8718762 0.88857484 0.6551514
0.6682066 0.7825875 0.8418651 1.2097738 0.83145326 0.6753326 1.1545455 0.9440367
1.3875157 0.94880253 0.89957887 0.76396745 1.3132904 1.4526774 1.0660466 0.70398384
0.7832061 0.75584006 0.6718596 0.9642587 1.2092079 0.678603 0.87946653 1.0758479
1.1232672 1.0326931 0.63142794 1.0993209 0.8479476 0.57715875 0.9246614 0.79892296
0.74476004 1.0164721 1.6912153 1.6000594 1.5478331 0.76297987 1.0459452 0.89278287
1.1220895 1.4900743 1.0867194 0.72052914 0.63235694 0.78691703 0.90345997 0.8920448
1.1556205 0.38660404 1.0620117 0.613267 0.77506965 1.0908608 0.67689097 1.423915
0.92454773 1.5071617 1.5412927 0.7630404 0.889209 0.87924474 1.3755567 0.72114515
0.7299116 1.4411536 0.79898983 1.1636661 0.5531915 0.57280016 1.7860602 0.57144266
0.9825148 0.7359514 1.2656666 0.84355605 0.8122483 0.6022181 0.77594 0.85956
0.8804335 0.8674927 1.3401703 1.5900304 0.4574293 1.1243069 0.8200404 1.2825512
0.8132388 0.6789385 0.65746105 0.9640968 1.3074652 0.7309727 0.4658825 0.62425095
0.6346013 1.1140087 0.8599542 1.4531399 0.7882647 0.86920094 0.97435737 1.1962156

encoder.5.bias f4 [128]
00000000: 82df abbd 5c21 623e e1b9 413e 88c3 a93e
00000010: 564a 0b3e 8adb a1bd fc71 563d 5392 703e
00000020: fac6 01bd c10a 903d 9073 c63e 3397 693e
00000030: 981c 533e fe5d 993e a0d6 283e 16c9 f33d
00000040: 9427 773c 2ab2 9e3e 4869 6a3e d4d5 66be
00000050: 3808 ae3c 0c57 6f3e 68f1 31be c9bf 573e
00000060: 9d96 453d 3333 aa3e c888 d53e dd29 653d
00000070: 9b1e 2b3c 0da1 bc3e 2b32 a93d c77f 9d3e
00000080: 5fb2 553d 3718 763e 54cc c43d 9fc2 933e
00000090: 3aa9 563e f5a1 c93d e91f de3c 4db1 cd3e
000000a0: c30b 903e 7bf1 7d3e 437d 3c3e 8b6f ad3d
000000b0: a6e4 843d df29 293e d1de 4e3e d98f a13e
000000c0: e15e 643e f431 a73d 9674 5b3e 7d35 b73e
000000d0: 2cc1 833e 2ec7 cebd 9440 063e c8ca 5a3e
000000e0: 5db5 513e d251 99bd a1ea 62be 4376 293e
000000f0: bcce 093e 35ce 813e 0d0f e0bd af4f 9b3d
00000100: f236 da3e 8c5f 613e 65e5 123e 077f 093e
00000110: 1bfe 493d 731f bb3e ad32 f23d 01d7 7e3e
00000120: 8ec3 fb3d 66e7 c23d 3d7a e13d 8818 bf3e
00000130: ccb8 3d3c 67aa 3e3e 88d4 073f 57f6 c43d
00000140: 71b6 87bd c004 85bb bd91 953e 78f5 4a3e
00000150: f10f 0d3e 025f 223e 5f67 143e fef7 8d3e
00000160: fe44 6c3e 275b 7b3e 0b4f 913e 3e0d 813e
00000170: f470 d73c 6668 90be 137c b33e f390 b9bd
00000180: b169 7abd 1cd5 9e3d 2c77 e33c b04d 51be
00000190: 29ee 8c3e 99a3 c13e 196b d73e 3af9 933e
000001a0: 2e36 96bd 59b6 c03e 8a09 45be 90ca 2b3e
000001b0: a944 0bbc 9b03 20bd 517c 3b3e 79d6 92bd
000001c0: 5b1e e13e 9ea0 763e d2fe c83e 39e0 a8bd
000001d0: 6095 563e 537c c0bd 8d58 1b3e c895 033e
000001e0: f379 be3e f889 e63d ce5b b73d 942a 633e
000001f0: a35d b1bd 4791 61bd 92f4 743e ef7a a83e
-0.0839224 0.22083038 0.18918563 0.3315699 0.13602576 -0.07903202 0.052354798 0.23493318
-0.0316839 0.07033301 0.38760042 0.22811584 0.20616376 0.29954523 0.16488123 0.119035885
0.01508512 0.30995303 0.22891724 -0.22542506 0.021244153 0.2337305 -0.17377245 0.21069254
0.04823934 0.33242187 0.41705918 0.055948127 0.010444309 0.36841622 0.08261522 0.3076155
0.05217206 0.24032675 0.09609285 0.28859422 0.20962992 0.09845344 0.027114825 0.40174332
0.28133973 0.24799149 0.18407159 0.08468541 0.06488924 0.16519879 0.20202185 0.3155506
0.22301818 0.08163825 0.21431193 0.35782996 0.25733316 -0.10096584 0.13110572 0.21366417
0.20479341 -0.07486309 -0.22159816 0.1654902 0.13457769 0.25352636 -0.10940371 0.07583558
0.42620045 0.22009104 0.1434532 0.13427363 0.0493146 0.3654743 0.11826072 0.24886705
0.122931585 0.09516792 0.11009643 0.37323403 0.011579704 0.18619691 0.5305867 0.09617298
-0.06626595 -0.004059404 0.29212752 0.19820201 0.13775612 0.15856555 0.14492558 0.27728266
0.23073193 0.2454649 0.28380617 0.25205415 0.026298977 -0.2820465 0.350556 -0.0906085
-0.06113595 0.07755491 0.027766787 -0.20439792 0.27525452 0.37820128 0.42073897 0.28901082
-0.07334553 0.3763912 -0.1924192 0.1677649 -0.008500257 -0.03906594 0.18309142 -0.07169814
0.43968472 0.24084708 0.39256912 -0.08245892 0.2095542 -0.09398713 0.15170498 0.12850106
0.37202415 0.11256784 0.08953057 0.22184211 -0.08660438 -0.055070188 0.23921421 0.3290629

encoder.5.running_mean f4 [128]
00000000: 0cd6 543e 9a3b 2340 27b4 693e 3727 a73d
00000010: f326 9d3e abe0 773e 1bb9 993f 3dbf 063f
00000020: 295d 823e 9c55 bd3e 93f2 623f f202 0c3f
00000030: fead bc3e 1291 933f a19e d03e 1bec 7440
00000040: 1870 923f aff8 5a3f 5222 fc3f fcaf bd3e
00000050: 3ecc 393f cde8 553e d038 cc3f f3bc 553f
00000060: 8ee7 a33e b9a3 9b3f cebf 1e3f 86bb 183d
00000070: e2b1 203f 3d9d e63f c9f9 6c3d 77f3 1c3e
00000080: f1e1 793e d981 0840 bab8 353f fd8c a73e
00000090: 23c6 c33e 79d0 f93d 88a4 9f3d b5e9 8b40
000000a0: 3d68 083f 5e26 2c40 021e 1940 451c 333e
000000b0: c259 5f3e d100 313f 0d25 573f 3d68 c83d
000000c0: c09f 563e 0f31 5a3e 1665 3c40 0f32 363f
000000d0: fa8b 903f 1772 863f aa61 0d3e 1285 353e
000000e0: c12a fa3f 4626 753e b5f7 9a3f d8a7 b73d
000000f0: f82e 823e d72b 0040 501a 163e cf29 093f
00000100: 58c0 f83d fdf2 4e3e 912b a63e 5d26 a33f
00000110: fb1a a93e e588 0540 b91d 1b3e 7e2f 5d3f
00000120: 26ae d03d ab80 423f 2cd0 d93d 575e c43f
00000130: 05d4 763f 7290 923d c88e 873f 22e1 843e
00000140: 3554 963e 0525 5e3d 36c5 883e 6b50 603f
00000150: f042 683f edb7 b03e 85c8 2f3e cef5 313e
00000160: cc01 6e3e 6bb2 523f d8ac 853e e749 733e
00000170: 8aa7 1c40 9863 0f40 0831 c63f 48f3 b03f
00000180: 0bab 223e 8579 d93e fa9f f73e e800 db3f
00000190: d093 e03e 4e0c 7e40 49f8 003f fb3e 9f3f
000001a0: bed8 1b40 62a5 5740 ef41 3d3e 7c99 ea3c
000001b0: 883d 9b3f 2996 783e 5847 a93d 2d01 a23e
000001c0: cff7 203f 63f9 b83f 4d31 8340 7af8 b93f
000001d0: f4a9 f23e 9553 9b3e 6ad6 1b40 4f04 903e
000001e0: 4a29 9d3f d8ce 5d3e a9d0 503e d6c5 b43e
000001f0: 581d 943e fd76 c53e fdde 4c3e 6619 213e
0.20784777 2.5505128 0.22822629 0.081617765 0.30693778 0.24206798 1.2009615 0.52635556
0.254617 0.36979377 0.8865139 0.54691994 0.36851496 1.1528647 0.40746024 3.8269107
1.1440458 0.8553571 1.9697974 0.37048328 0.72577274 0.20889588 1.5954838 0.8349144
0.320126 1.2159339 0.6201142 0.03728821 0.6277143 1.8016735 0.0578554 0.1532725
0.24402596 2.1329253 0.70984995 0.32724753 0.38237104 0.12197966 0.07795054 4.3722787
0.53284055 2.6898417 2.3924565 0.17491253 0.21811584 0.6914187 0.8404091 0.09785507
0.20959377 0.21307777 2.9436698 0.71170133 1.1292717 1.0503567 0.13806787 0.17726544
1.9544297 0.23940381 1.2106844 0.089675605 0.2542646 2.0026758 0.14658475 0.5357942
0.12146062 0.2020988 0.32455114 1.2746083 0.33028397 2.0864804 0.15148057 0.8640059
0.10189466 0.7597758 0.10635409 1.534129 0.96417266 0.07156457 1.0590448 0.25953013
0.2936112 0.054234523 0.2671296 0.8762271 0.9072714 0.34515324 0.17166336 0.17378923
0.23242873 0.82303494 0.26108432 0.2375866 2.4477258 2.2404537 1.5483713 1.3824244
0.1588556 0.42475525 0.4836424 1.7109652 0.43862772 3.969501 0.50378853 1.2441095
2.435104 3.3694692 0.18482183 0.02863764 1.2128153 0.24276032 0.08265561 0.31641522
0.62878126 1.4451107 4.099768 1.4528954 0.4739529 0.30337206 2.4349618 0.28128287
1.2278225 0.21660936 0.20392098 0.35307187 0.28928638 0.38567343 0.20006938 0.15732345

encoder.5.running_var f4 [128]
00000000: d615 173f 8e3f e540 c2f1 263f 2a82 2c3e
00000010: 9fea 903f 2c8b 363f fe40 ac40 b2de c83f
00000020: b94f 393f bbfe af3f 1c5b 1a41 9c70 a63f
00000030: 84ad 413f 66bf 6f40 5efd 6a3f 2372 4741
00000040: 9f24 8b40 d3bb 0640 9b07 1241 5e3d f33f
00000050: 86df e53f e00e 1f3f cf90 da40 5f5c fd40
00000060: ba13 d23f ecee 7a40 0c3c d03f 4c4b ca3d
00000070: 077e 7740 9f8b d140 bf22 443e 24c7 f93e
00000080: 27a0 773f 8450 3241 48c7 0d40 6af4 463f
00000090: 3354 543f 3b8c 8b3e 710d 773e de81 d041
000000a0: f3e3 2640 d98b 7441 6f76 5d41 c0b0 f73e
000000b0: d27f 2e3f 5ddf fe3f 7789 4e40 83c5 b33e
000000c0: 66c2 d63e cd56 f03e fa5a 9a41 b930 cc3f
000000d0: 11d5 9a40 3d41 1941 765d 033f 5a6f 0a3f
000000e0: 14a8 ed40 d5d4 dc3e f882 6d3f 0ec4 903e
000000f0: 72f2 493f db97 be40 30d4 d33e 65c6 0e40
00000100: 81e6 a03e b082 563f 1817 1d3f 49bb 8740
00000110: a4cd 9d3f 858c 2541 95e2 073f 0206 2940
00000120: 93e2 763e 11ad 9340 2221 a63e 30f9 8640
00000130: 4a38 7840 abc0 9a3e 216e b640 6d4d 413f
00000140: 5e7a 433f 1ceb 173e 0679 5e3f 35c8 b840
00000150: 926f 3740 e253 b13f 6c37 d03e e68b e93e
00000160: 28d3 fc3e 25a3 f13f 4710 233f e5ea df3e
00000170: be95 8a40 90b7 1e41 1f9a d53f 27cd 3841
00000180: 1cdf 083f a6df cd3f 867b 933f d8e4 1441
00000190: 8142 bb3f ca29 8641 bb5d 873f eddf 9840
000001a0: 0d30 7041 394d 6241 9b12 fe3e 4ad1 913d
000001b0: c134 de40 9665 4d3f c070 153e d8c9 863f
000001c0: 7080 f53f 624d 7140 66c7 8c41 9d5d 9340
000001d0: 545a 813f d3bc 683f 9233 1742 1af8 9e3f
000001e0: 9af1 db40 0e73 1a3f 8be5 ae3e aaa7 af3f
000001f0: 521b 1a3f a51e b73f adc3 f33e 3dc4 f23e
0.59017694 7.164008 0.65212643 0.16846529 1.1321601 0.7130611 5.3829336 1.5692961
0.7238727 1.3749613 9.6472435 1.3003116 0.7565539 3.746057 0.9179286 12.465365
4.3482203 2.1052139 9.126857 1.9003103 1.7958839 0.6213207 6.830177 7.917526
1.641227 3.9208326 1.6268325 0.09877643 3.867067 6.5482936 0.1915388 0.48784745
0.9672875 11.144657 2.2152882 0.77716696 0.8294098 0.27255425 0.24126221 26.063412
2.607663 15.2841425 13.841414 0.48377037 0.6816379 1.9911915 3.2271402 0.35111627
0.4194519 0.46941224 19.294422 1.5952369 4.838509 9.578427 0.51314485 0.5407616
7.4267673 0.43131128 0.9277797 0.28274578 0.7888557 5.956037 0.41372824 2.230859
0.3142586 0.83793163 0.61363363 4.241612 1.2328382 10.346807 0.5308011 2.6409917
0.24109869 4.6148763 0.32447153 4.2179184 3.8784356 0.3022512 5.7009435 0.7550877
0.7635859 0.14835781 0.8690342 5.7744393 2.8661847 1.3853724 0.40667284 0.45614547
0.4937985 1.8877913 0.6369671 0.43733898 4.330779 9.919815 1.6687659 11.550086
0.5346544 1.6083877 1.1522071 9.30587 1.462967 16.770405 1.0575479 4.7773347
15.011731 14.143853 0.4962357 0.07119997 6.9439397 0.8023313 0.14593792 1.0530348
1.9179821 3.770348 17.597363 4.6051774 1.0105691 0.9091312 37.80036 1.2419465
6.8732424 0.6033181 0.34159502 1.3723042 0.6019794 1.4306227 0.47610226 0.47415343

decoder.0.weight f4 [64, 128, 3, 3]
00000000: 0ba6 febd 2c7c 793d 6abe a53d 7a95 f5bd
00000010: 58d0 fe3c c445 4b3c 84c5 bbbd e02b 2b3e
00000020: cf63 0d3e 1a97 4cbd 8e16 723c 9a5a 1a3c
00000030: 44a2 85bd cff1 963a 392d e9bc 14ef f1bc
00000040: e1cb 923c f5f6 663d d68e 593e bd3b d23d
00000050: d2bc 013d ee8d 7f3d 5bfa d9bd b727 40be
00000060: 6208 97bd 2240 98be f97b dbbd 75ae 4cbe
00000070: 2aa4 0abe 733a 863c 2e4a 97be 9616 99bd
00000080: b148 233d 2da2 babe 7b08 52bd 9d33 73bc
00000090: d60a 49bd ceb8 b8bd 8d60 05be 881d 1a3b
000000a0: 17c2 1ebd e126 a3bd 92b4 cb3d bf0f 41bc
000000b0: 0489 10bd 0394 f63d 4867 9c3d 99d5 2a3e
000000c0: 3b9d 1f3e c8bd e23d dcaa 213e 497d 0f3e
000000d0: 9bc9 ea3d 5230 423e c151 3bbd d06e cbbd
000000e0: a363 03be d296 93bd e34b a6bd 178c d2bd
000000f0: a548 4bbc 6db1 4bbd 2fa3 b9bd 6e48 14be
00000100: b0bf 9dbd 786a d4bd ac59 3bba 2ac6 99bd
00000110: dbfc f0bc 32c1 a03d a389 043e 5704 223e
00000120: 921b 813e 7e1c 6d3e b2ef 483e 59cf 553e
00000130: c807 683e 9d3d 6c3e 31dc 3f3e cb23 5d3e
00000140: 4d09 873e e79c ba3d 8905 d03d 24e3 503e
00000150: a0e2 243e df63 3f3e 5c82 6a3e ac3e 0d3e
00000160: 4f62 303e 0a46 763e bb19 c5bd 8df8 8dbd
00000170: 3cd5 1dbd ab81 d1bd 7dac c5bd c71b b6bc
00000180: c2a8 0cbd 5864 a4ba 495a 45bc c72f 42be
00000190: e0ee d3bd 6be7 cabe 7da2 f4bd 4d04 abbe
000001a0: f6f1 4fbe 1b5d 97be 99b7 93be eaa8 8ebd
000001b0: e7e5 d33b 8429 8dbd 86d1 39bd a537 c33d
000001c0: 284a dd3d 3299 8e3d 0b67 8a3c c9fa 8f3d
000001d0: 5afc 693d 0687 35be cbb1 4dbe b737 11be
000001e0: 887d 6fbe 9578 84be e97a ffbd 7dc3 85be
000001f0: ee8d 85be 21db 46be b130 40be 626f 80be
00000200: aeca a4be 20e0 35bd 378a 82bd c14e 4dbd
00000210: 872e dc3b 80ee 2d3d ba73 da3b 612d 82bd
00000220: 3bac adbd 4b65 80bd b603 52bd 1ca1 12bd
00000230: 36ac 2bbd 5c77 b33c 57f2 96ba e38f 7d3d
00000240: ac47 48bc 326b a33c a5a2 0c3e 406f 333d
00000250: 93f2 9d3c abc0 073e 49ec a03d b3a2 bf3d
00000260: a60c 2a3e 88f9 e63c 0b35 263d de2c e6bc
00000270: d614 093e 4da6 d43d 822f 6f3c 821e c93b
00000280: a514 1d3c 569c 0bbb b393 3ebe fc86 21be
00000290: d9c1 1fbe b1d4 6abe 90f9 3cbe 4e62 13be
000002a0: 033f 25be f890 f0bd 6157 8bbd 4543 0c3e
000002b0: d62f 1f3e 2b67 c83d 4b13 d13d be4f 193c
000002c0: 5412 9abd 8622 4a3d 93f8 58bd c050 e5bd
000002d0: 5bd3 1f3c 5aad 38bd fd0a 77bd cbdd 7dbd
000002e0: 1838 a9bc 299b 01bd 64b8 0f3d c7d2 523d
000002f0: e572 553c 7ded da3d 1dbf fa3d 03de 2c3d
00000300: 42f7 e63d a47c 2a3e 1609 923d 20db 683d
00000310: 7449 4a3d a3f0 143c 7238 85bb c81f 223d
00000320: 69bd 92bb 3d7c d03d d172 2e3e 6c1f e63d
00000330: aeb1 d03d ef81 493e 0aee 093e 001f b7bc
00000340: 911d ecbc 34ad 923c 22ee 20bd c045 61bd
00000350: 635a 733d 7fd5 c23c 23e8 113b 333d 8f3d
00000360: 975a 56bd f3db a8bc efc8 80bd 5920 2bbc
00000370: bd77 84b9 539e 99bd 5f2c 53bd 50ca bbbd
00000380: 4a6c eabd 09f5 2fbe 61ff 11be bc7c 40bd
00000390: 20a7 42be 96cb 67be dc9e 91bd b126 10be
000003a0: 6409 5ebe 87f0 02be f169 6dbe 0c05 97be
000003b0: 439d b0be 16e0 46be d411 98be 8937 8bbe
000003c0: 321e 56be 53bb aebe 5467 9ebe 462f 38be
000003d0: 0a5d 33bd 5c5d 093d 79ee 8cbc f5bb 993d
000003e0: 5ed4 363d 138a 61bd 3a2c 573d 8b1f 213e
000003f0: 93dc a43d 08df 113e be5e 8e3d 4804 15bd
-0.12434014 0.060909435 0.08092959 -0.11991401 0.031105205 0.01240677 -0.091685325 0.16715956
0.13807605 -0.04994879 0.014775885 0.009421015 -0.0652509 0.0011516156 -0.028463947 -0.029532947
0.017919483 0.05638786 0.21245894 0.102653004 0.031674214 0.062391214 -0.10643455 -0.1876515
-0.07374646 -0.2973643 -0.10717005 -0.19988425 -0.13539186 0.016385293 -0.29548782 -0.07475011
0.039864246 -0.36451855 -0.05127762 -0.0148438485 -0.0490826 -0.09019624 -0.13025112 0.0023516137
-0.038759317 -0.079664 0.099465504 -0.011783539 -0.03528692 0.1203995 0.07636887 0.16683044
0.15587322 0.11071354 0.15787834 0.14012636 0.114642344 0.18963745 -0.045732263 -0.09933245
-0.12830977 -0.07206501 -0.08119943 -0.10280626 -0.0124074565 -0.049729753 -0.09064328 -0.14480755
-0.07702577 -0.1037187 -0.0007146846 -0.075085 -0.029417446 0.07849349 0.12943129 0.15821968
0.25216347 0.231554 0.19622687 0.20879878 0.22659218 0.23070379 0.1873634 0.21595685
0.26374283 0.09111958 0.10157306 0.20399147 0.16102076 0.18690442 0.2290129 0.13793439
0.17225002 0.24050155 -0.09624048 -0.06932173 -0.038533434 -0.1022981 -0.0965204 -0.022230042
-0.034340627 -0.0012542112 -0.012045451 -0.18963538 -0.10348296 -0.39629683 -0.11945055 -0.3340172
-0.20307145 -0.2956322 -0.2885101 -0.069658116 0.0064666155 -0.06892684 -0.045365833 0.09532098
0.1080516 0.069628134 0.016894838 0.07030255 0.057125427 -0.17727289 -0.20087354 -0.1418141
-0.2338773 -0.25873247 -0.12474615 -0.26125708 -0.26084846 -0.19419529 -0.18768574 -0.25084978
-0.32185882 -0.044403195 -0.06374019 -0.050123934 0.0067194137 0.04246378 0.0066666277 -0.063563116
-0.08480116 -0.0626932 -0.05127307 -0.035798177 -0.04191228 0.0219075 -0.0011516315 0.0619048
-0.012224119 0.019948576 0.13733919 0.04380727 0.019280707 0.13257091 0.07857568 0.09357204
0.16606387 0.028195158 0.04057793 -0.028097566 0.13386855 0.10383282 0.014598729 0.00613767
0.009587442 -0.00213029 -0.1861103 -0.15774149 -0.15601291 -0.22932698 -0.18454576 -0.14392969
-0.16137318 -0.117464006 -0.068037756 0.13697536 0.15545592 0.09785303 0.10208758 0.009357391
-0.07523027 0.04934933 -0.052971434 -0.111970425 0.009754981 -0.045087196 -0.060313214 -0.061979096
-0.02065663 -0.031642113 0.035087958 0.051470544 0.013027881 0.106898285 0.12243483 0.042203914
0.112776294 0.16649109 0.07130639 0.0568496 0.049386457 0.009090575 -0.0040655667 0.03958109
-0.004478146 0.101799466 0.17035986 0.11236462 0.1019014 0.19678472 0.13469711 -0.02235365
-0.028822692 0.017904855 -0.0392896 -0.05499816 0.05941237 0.023783443 0.0022263608 0.06994095
-0.052332487 -0.020612692 -0.06288325 -0.010444724 -0.00025266214 -0.07500901 -0.051555987 -0.091694474
-0.11446436 -0.17183317 -0.14257576 -0.046993956 -0.19009066 -0.22636256 -0.07110378 -0.1407726
-0.2168327 -0.12787066 -0.23184945 -0.29496038 -0.3449498 -0.1942142 -0.29701102 -0.27190807
-0.20909956 -0.34127292 -0.30938208 -0.17986783 -0.0437899 0.0335363 -0.017203556 0.07506553
0.044636123 -0.05506332 0.052532412 0.15734689 0.08049884 0.14245236 0.069516644 -0.036381036

decoder.0.bias f4 [64]
00000000: 8df4 92be 1c88 943c cc08 923e 7b7b babd
00000010: 8332 06bf f627 f4bd 28f0 f9bd a510 0d3f
00000020: f0fe 723e 562d a6bd 2696 18bf 379e debd
00000030: f511 0c3d aca9 62bd 168c a5be 249d 703d
00000040: 1249 9abe 34ad 1ebf 0d27 2ebe 653f c4bd
00000050: 16d3 253e fdd1 a8bd 3594 a63d 7ff4 f9be
00000060: afad 82be 7230 5bbd 6218 323e c2ce d23d
00000070: cdf2 113e 44f7 03bb 2e4e fabe 951e 673e
00000080: 715f 0dbe 3313 ad3e 99e9 2dbe 6b60 a53e
00000090: 27a7 e0bd c4da 8e3d e5c7 76bd 826b 1e3d
000000a0: e892 cfbc ceb2 b8be d95c 503e 2b90 ec3d
000000b0: 1374 873d 2282 8c3d d450 833d 48a7 913e
000000c0: a324 91be 717f eabd e7ab 3e3d cd15 b7bc
000000d0: 73f0 9d3d 9040 b5be acf6 b33e e44c 3b3d
000000e0: 48a7 95be c7e6 01be 0352 fdbc 72e4 16be
000000f0: 628e aabe 68d5 97bd 0e42 743e 7aeb f9be
-0.28702202 0.018131308 0.28522336 -0.09105583 -0.52420825 -0.119216844 -0.12204009 0.5510352
0.23730063 -0.08114116 -0.5960411 -0.10870021 0.034196813 -0.055337593 -0.3233344 0.05874361
-0.30133873 -0.61983037 -0.17007084 -0.09582404 0.16193804 -0.08243177 0.08133737 -0.48819348
-0.25523135 -0.053512998 0.17392114 0.10293342 0.14252777 -0.0020136395 -0.4888777 0.2257026
-0.1380594 0.3380371 -0.16983642 0.32300124 -0.10969382 0.0697532 -0.060249228 0.038676746
-0.025338605 -0.36073917 0.20347919 0.11550935 0.06613936 0.06860758 0.06411901 0.28447938
-0.28348264 -0.11450089 0.046550658 -0.022349263 0.07711878 -0.3540082 0.35149133 0.045727625
-0.29229188 -0.12685691 -0.030922895 -0.14735582 -0.33311754 -0.07413751 0.23853323 -0.48812467

decoder.2.weight f4 [64]
00000000: b983 a03f 129c a43f a1a6 913f d416 aa3f
00000010: c707 e33f a3ec a53f 673f bb3f 872d 3240
00000020: d895 8a3f b1ec b03f ac86 a33f 0282 9d3f
00000030: 8ad8 a63f 8cc3 b03f eb28 a43f 72e2 1340
00000040: 3e3a 9c3f 5285 d33f 42b3 a43f 32df a73f
00000050: 227a 893f 5abb a33f 2d2b a53f 269e bf3f
00000060: 3b10 9e3f ee93 d33f acfe a13f b113 963f
00000070: 91a6 8d3f a4e4 a13f 09bd e33f 30c4 993f
00000080: c990 933f ee40 903f 61fa ba3f f835 933f
00000090: 195f a23f 96ec 993f a765 af3f 5559 923f
000000a0: 139c 8f3f f91b b63f ed40 9c3f c5b1 a03f
000000b0: 3aa9 a03f 0320 9f3f 94c6 9f3f 0a2a 9e3f
000000c0: 4bc8 ad3f b405 b33f c07f a33f e7dc 9b3f
000000d0: 2284 993f bd7a c03f c84e 0a40 514d 9b3f
000000e0: 78dd a93f b38b a93f 1182 9e3f ff3a a53f
000000f0: f032 ac3f 1979 8f3f 0df0 963f ba55 b23f
1.2540199 1.2860129 1.1378976 1.3288217 1.7736748 1.2962841 1.4628724 2.7840288
1.0826979 1.3822232 1.2775474 1.23053 1.3034832 1.3809676 1.2824987 2.3106961
1.2205274 1.6525061 1.2867205 1.3114989 1.0740397 1.279155 1.2903801 1.4970138
1.2348703 1.652952 1.2655845 1.1724759 1.1066457 1.26479 1.7792064 1.2012997
1.152856 1.1269815 1.460766 1.1500845 1.2685272 1.2025325 1.3702897 1.1433512
1.1219505 1.4227287 1.2207314 1.2554251 1.2551644 1.2431644 1.2482476 1.2356579
1.357675 1.3986115 1.2773361 1.2176789 1.1993449 1.5037457 2.1610584 1.213297
1.3270712 1.3245758 1.2383443 1.2908629 1.3453045 1.1208831 1.1792008 1.3932412

decoder.2.bias f4 [64]
00000000: 31e1 2abe 90bc 3d3e 8107 1ebe ef88 303e
00000010: 0879 23be 4bea 323e 5306 d43d a26b 08bf
00000020: 66e0 34be ee96 313e bf69 25be d4c5 2ebe
00000030: 3cdb 393e 70c2 303e f050 2fbe e723 6bbe
00000040: cf20 0fbe e26d 39be 6ac6 303e 1601 313e
00000050: 0fab 33be 7dfe 253e f104 353e b696 22be
00000060: f6b2 25be c325 883d ec93 2e3e e5ff 22be
00000070: 093e 2bbe 0e36 353e 9283 42be 18fc 403e
00000080: cd96 1abe 3238 30be da9d 383e 0663 22be
00000090: dc24 353e 6b23 533e 806b 2d3e 7847 0cbe
000000a0: 8526 10be 70c5 32be 47e1 1e3e f917 3a3e
000000b0: 13cd 333e 85cc 2f3e 0316 333e 2d20 303e
000000c0: e24d 31be a2b7 303e 1f96 333e b82d 413e
000000d0: 74da 4e3e a3f4 35be 575b d5be 2cec 1ebe
000000e0: 5653 24be 3e77 443e 6950 3f3e d93c 413e
000000f0: 6cca 38be 44d5 30be b79e 18be 9b79 15be
-0.16687466 0.18528962 -0.1543255 0.17239736 -0.15964139 0.17472188 0.10352769 -0.53289235
-0.17663726 0.17342731 -0.1615362 -0.17067653 0.18150038 0.17261672 -0.17120719 -0.22962914
-0.13977359 -0.18108323 0.17263189 0.1728557 -0.17545722 0.16210361 0.17677666 -0.15877804
-0.1618155 0.066478275 0.17048615 -0.15917929 -0.16722883 0.17696401 -0.18995503 0.18846166
-0.15096588 -0.17208937 0.18028966 -0.15858087 0.17689842 0.2061898 0.16935539 -0.13699138
-0.14077194 -0.17458129 0.15515624 0.18173207 0.17558698 0.17167862 0.17488866 0.17199774
-0.17314866 0.1725755 0.17537735 0.18865097 0.20200521 -0.17769103 -0.4167125 -0.1551978
-0.16047415 0.19186112 0.18683018 0.18870868 -0.18045968 -0.17268854 -0.14904295 -0.1459717

decoder.2.running_mean f4 [64]
00000000: 9c5a f73e baa4 9140 9ceb 3340 71a7 1840
00000010: 8a14 b83e 4aa5 3f3f cf8d 943e acf7 6840
00000020: c181 9040 49c7 393f cb0c a43f 8bdf f63e
00000030: b1fb 4b40 caa8 e43f 5119 663f 8066 ff3f
00000040: e336 0b3f 70e8 ab3e 36d0 d240 651c 2740
00000050: bd1f 5c40 9ac1 fb3f ca77 cd3f 4c9e 8a3e
00000060: a973 4d3f adb4 863f d207 9240 1ace 933f
00000070: ebdc a63f bfb9 e23f e436 543e f876 2241
00000080: 13f6 9b3f 616c 3d40 a8fd 0140 a750 0f40
00000090: e2d7 0540 20f9 e640 d062 fd3f 7b43 a33f
000000a0: f033 ce3f 3cf8 1b3f 54a0 5940 0095 c140
000000b0: 1bd2 ad40 f405 2c40 cf60 aa40 98cd 8940
000000c0: b274 3a3f cee8 6b3f 52af a840 6cc3 2740
000000d0: 72c3 c740 7242 c93e af8a 5740 d84a 7a3f
000000e0: fdd9 4a3f 780a 2340 64ed f140 5029 6540
000000f0: 78f4 d83e 8f01 0940 b459 fb3f 13c5 b13f
0.48311317 4.551358 2.8112555 2.3852198 0.3595317 0.74861586 0.2901444 3.6401167
4.515839 0.7256971 1.2816404 0.48217425 3.187237 1.786401 0.8988238 1.9953156
0.54380625 0.33575773 6.5879164 2.611108 3.4394372 1.9668458 1.6052182 0.27073896
0.8025461 1.0523888 4.5634546 1.1547272 1.3036169 1.7712935 0.20724064 10.154045
1.2184471 2.95974 2.031107 2.2392976 2.0913014 7.217911 1.979578 1.2754968
1.61096 0.6092565 3.4004107 6.0494385 5.4318976 2.6878633 5.3243175 4.306347
0.7283431 0.92152107 5.2714014 2.6213026 6.242608 0.39308506 3.3678396 0.9777045
0.79238874 2.547514 7.5602283 3.5806465 0.42374015 2.1407201 1.963675 1.3888267

decoder.2.running_var f4 [64]
00000000: 74c4 aa40 1245 6f42 003e e941 640b a641
00000010: e5d2 4840 9741 7540 1fa9 1140 3cb6 6241
00000020: 13c3 ad42 a831 6a40 8fe5 ba41 a6ae 8640
00000030: 4c88 da41 6ee0 3f41 50c9 8341 a680 3d41
00000040: 772c 5a40 eff3 0440 d58c a042 fa88 1e42
00000050: 2421 8342 cc47 9b41 f034 1b41 2972 8640
00000060: 21c5 7041 5e76 0e41 d3ea fe41 5997 0241
00000070: 6948 9c41 61b5 4041 9bd4 1a40 6067 0143
00000080: d11e 1e41 434c ea41 3cc3 2d41 aa7a a541
00000090: ca64 9b41 b7b7 8a42 bb54 2941 7c7c 2741
000000a0: d322 4141 0bb4 ec40 0587 bc41 e579 8e42
000000b0: f2f5 8e42 c2b2 b041 d206 f241 0075 c041
000000c0: 304c 0341 65e2 ba40 e481 5942 f64b 8f41
000000d0: e560 8142 12cc 8740 5b43 b141 e7e8 bb40
000000e0: c5f8 5141 90fa 9641 190d b442 9c49 5742
000000f0: 82d6 9c40 dbf8 5f42 276c 6b41 ea90 4e41
5.336481 59.81745 29.155273 20.755562 3.137872 3.8321283 2.2759473 14.169491
86.881004 3.6592808 23.36209 4.2088194 27.316551 11.992292 16.473297 11.843908
3.408964 2.0773885 80.27506 39.633766 65.56473 19.410057 9.700424 4.2014356
15.048127 8.903898 31.86466 8.16195 19.535357 12.044282 2.4192264 129.40381
9.882524 29.287237 10.860165 20.684895 19.424213 69.35882 10.583186 10.467892
12.071002 7.396978 23.565928 71.238075 71.48036 22.087284 30.25333 24.057129
8.2061 5.840136 54.376846 17.91209 64.68925 4.243661 22.157888 5.8721805
13.123235 18.872345 90.02558 53.821884 4.901185 55.993023 14.713904 12.910379
